<?xml version="1.0"?>
<net name="torch_jit" version="11">
	<layers>
		<layer id="0" name="images" type="Parameter" version="opset1">
			<data shape="1,3,384,384" element_type="f16" />
			<output>
				<port id="0" precision="FP16" names="images">
					<dim>1</dim>
					<dim>3</dim>
					<dim>384</dim>
					<dim>384</dim>
				</port>
			</output>
		</layer>
		<layer id="1" name="Constant_9027" type="Const" version="opset1">
			<data element_type="i64" shape="3" offset="0" size="24" />
			<output>
				<port id="0" precision="I64">
					<dim>3</dim>
				</port>
			</output>
		</layer>
		<layer id="2" name="Constant_9030" type="Const" version="opset1">
			<data element_type="i64" shape="3" offset="24" size="24" />
			<output>
				<port id="0" precision="I64">
					<dim>3</dim>
				</port>
			</output>
		</layer>
		<layer id="3" name="Constant_9033" type="Const" version="opset1">
			<data element_type="i64" shape="3" offset="48" size="24" />
			<output>
				<port id="0" precision="I64">
					<dim>3</dim>
				</port>
			</output>
		</layer>
		<layer id="4" name="/model.0/Slice" type="StridedSlice" version="opset1">
			<data begin_mask="1, 1, 0" end_mask="1, 1, 0" new_axis_mask="" shrink_axis_mask="" ellipsis_mask="" />
			<input>
				<port id="0" precision="FP16">
					<dim>1</dim>
					<dim>3</dim>
					<dim>384</dim>
					<dim>384</dim>
				</port>
				<port id="1" precision="I64">
					<dim>3</dim>
				</port>
				<port id="2" precision="I64">
					<dim>3</dim>
				</port>
				<port id="3" precision="I64">
					<dim>3</dim>
				</port>
			</input>
			<output>
				<port id="4" precision="FP16" names="/model.0/Slice_output_0">
					<dim>1</dim>
					<dim>3</dim>
					<dim>192</dim>
					<dim>384</dim>
				</port>
			</output>
		</layer>
		<layer id="5" name="Constant_9039" type="Const" version="opset1">
			<data element_type="i64" shape="4" offset="72" size="32" />
			<output>
				<port id="0" precision="I64">
					<dim>4</dim>
				</port>
			</output>
		</layer>
		<layer id="6" name="Constant_9042" type="Const" version="opset1">
			<data element_type="i64" shape="4" offset="104" size="32" />
			<output>
				<port id="0" precision="I64">
					<dim>4</dim>
				</port>
			</output>
		</layer>
		<layer id="7" name="Constant_9045" type="Const" version="opset1">
			<data element_type="i64" shape="4" offset="136" size="32" />
			<output>
				<port id="0" precision="I64">
					<dim>4</dim>
				</port>
			</output>
		</layer>
		<layer id="8" name="/model.0/Slice_1" type="StridedSlice" version="opset1">
			<data begin_mask="1, 1, 1, 0" end_mask="1, 1, 1, 0" new_axis_mask="" shrink_axis_mask="" ellipsis_mask="" />
			<input>
				<port id="0" precision="FP16">
					<dim>1</dim>
					<dim>3</dim>
					<dim>192</dim>
					<dim>384</dim>
				</port>
				<port id="1" precision="I64">
					<dim>4</dim>
				</port>
				<port id="2" precision="I64">
					<dim>4</dim>
				</port>
				<port id="3" precision="I64">
					<dim>4</dim>
				</port>
			</input>
			<output>
				<port id="4" precision="FP16" names="/model.0/Slice_1_output_0">
					<dim>1</dim>
					<dim>3</dim>
					<dim>192</dim>
					<dim>192</dim>
				</port>
			</output>
		</layer>
		<layer id="9" name="Constant_9051" type="Const" version="opset1">
			<data element_type="i64" shape="3" offset="168" size="24" />
			<output>
				<port id="0" precision="I64">
					<dim>3</dim>
				</port>
			</output>
		</layer>
		<layer id="10" name="Constant_9054" type="Const" version="opset1">
			<data element_type="i64" shape="3" offset="24" size="24" />
			<output>
				<port id="0" precision="I64">
					<dim>3</dim>
				</port>
			</output>
		</layer>
		<layer id="11" name="Constant_9057" type="Const" version="opset1">
			<data element_type="i64" shape="3" offset="48" size="24" />
			<output>
				<port id="0" precision="I64">
					<dim>3</dim>
				</port>
			</output>
		</layer>
		<layer id="12" name="/model.0/Slice_2" type="StridedSlice" version="opset1">
			<data begin_mask="1, 1, 0" end_mask="1, 1, 0" new_axis_mask="" shrink_axis_mask="" ellipsis_mask="" />
			<input>
				<port id="0" precision="FP16">
					<dim>1</dim>
					<dim>3</dim>
					<dim>384</dim>
					<dim>384</dim>
				</port>
				<port id="1" precision="I64">
					<dim>3</dim>
				</port>
				<port id="2" precision="I64">
					<dim>3</dim>
				</port>
				<port id="3" precision="I64">
					<dim>3</dim>
				</port>
			</input>
			<output>
				<port id="4" precision="FP16" names="/model.0/Slice_2_output_0">
					<dim>1</dim>
					<dim>3</dim>
					<dim>192</dim>
					<dim>384</dim>
				</port>
			</output>
		</layer>
		<layer id="13" name="Constant_9063" type="Const" version="opset1">
			<data element_type="i64" shape="4" offset="72" size="32" />
			<output>
				<port id="0" precision="I64">
					<dim>4</dim>
				</port>
			</output>
		</layer>
		<layer id="14" name="Constant_9066" type="Const" version="opset1">
			<data element_type="i64" shape="4" offset="104" size="32" />
			<output>
				<port id="0" precision="I64">
					<dim>4</dim>
				</port>
			</output>
		</layer>
		<layer id="15" name="Constant_9069" type="Const" version="opset1">
			<data element_type="i64" shape="4" offset="136" size="32" />
			<output>
				<port id="0" precision="I64">
					<dim>4</dim>
				</port>
			</output>
		</layer>
		<layer id="16" name="/model.0/Slice_3" type="StridedSlice" version="opset1">
			<data begin_mask="1, 1, 1, 0" end_mask="1, 1, 1, 0" new_axis_mask="" shrink_axis_mask="" ellipsis_mask="" />
			<input>
				<port id="0" precision="FP16">
					<dim>1</dim>
					<dim>3</dim>
					<dim>192</dim>
					<dim>384</dim>
				</port>
				<port id="1" precision="I64">
					<dim>4</dim>
				</port>
				<port id="2" precision="I64">
					<dim>4</dim>
				</port>
				<port id="3" precision="I64">
					<dim>4</dim>
				</port>
			</input>
			<output>
				<port id="4" precision="FP16" names="/model.0/Slice_3_output_0">
					<dim>1</dim>
					<dim>3</dim>
					<dim>192</dim>
					<dim>192</dim>
				</port>
			</output>
		</layer>
		<layer id="17" name="Constant_9075" type="Const" version="opset1">
			<data element_type="i64" shape="4" offset="192" size="32" />
			<output>
				<port id="0" precision="I64">
					<dim>4</dim>
				</port>
			</output>
		</layer>
		<layer id="18" name="Constant_9078" type="Const" version="opset1">
			<data element_type="i64" shape="4" offset="104" size="32" />
			<output>
				<port id="0" precision="I64">
					<dim>4</dim>
				</port>
			</output>
		</layer>
		<layer id="19" name="Constant_9081" type="Const" version="opset1">
			<data element_type="i64" shape="4" offset="136" size="32" />
			<output>
				<port id="0" precision="I64">
					<dim>4</dim>
				</port>
			</output>
		</layer>
		<layer id="20" name="/model.0/Slice_4" type="StridedSlice" version="opset1">
			<data begin_mask="1, 1, 1, 0" end_mask="1, 1, 1, 0" new_axis_mask="" shrink_axis_mask="" ellipsis_mask="" />
			<input>
				<port id="0" precision="FP16">
					<dim>1</dim>
					<dim>3</dim>
					<dim>192</dim>
					<dim>384</dim>
				</port>
				<port id="1" precision="I64">
					<dim>4</dim>
				</port>
				<port id="2" precision="I64">
					<dim>4</dim>
				</port>
				<port id="3" precision="I64">
					<dim>4</dim>
				</port>
			</input>
			<output>
				<port id="4" precision="FP16" names="/model.0/Slice_4_output_0">
					<dim>1</dim>
					<dim>3</dim>
					<dim>192</dim>
					<dim>192</dim>
				</port>
			</output>
		</layer>
		<layer id="21" name="Constant_9087" type="Const" version="opset1">
			<data element_type="i64" shape="4" offset="192" size="32" />
			<output>
				<port id="0" precision="I64">
					<dim>4</dim>
				</port>
			</output>
		</layer>
		<layer id="22" name="Constant_9090" type="Const" version="opset1">
			<data element_type="i64" shape="4" offset="104" size="32" />
			<output>
				<port id="0" precision="I64">
					<dim>4</dim>
				</port>
			</output>
		</layer>
		<layer id="23" name="Constant_9093" type="Const" version="opset1">
			<data element_type="i64" shape="4" offset="136" size="32" />
			<output>
				<port id="0" precision="I64">
					<dim>4</dim>
				</port>
			</output>
		</layer>
		<layer id="24" name="/model.0/Slice_5" type="StridedSlice" version="opset1">
			<data begin_mask="1, 1, 1, 0" end_mask="1, 1, 1, 0" new_axis_mask="" shrink_axis_mask="" ellipsis_mask="" />
			<input>
				<port id="0" precision="FP16">
					<dim>1</dim>
					<dim>3</dim>
					<dim>192</dim>
					<dim>384</dim>
				</port>
				<port id="1" precision="I64">
					<dim>4</dim>
				</port>
				<port id="2" precision="I64">
					<dim>4</dim>
				</port>
				<port id="3" precision="I64">
					<dim>4</dim>
				</port>
			</input>
			<output>
				<port id="4" precision="FP16" names="/model.0/Slice_5_output_0">
					<dim>1</dim>
					<dim>3</dim>
					<dim>192</dim>
					<dim>192</dim>
				</port>
			</output>
		</layer>
		<layer id="25" name="/model.0/Concat" type="Concat" version="opset1">
			<data axis="1" />
			<input>
				<port id="0" precision="FP16">
					<dim>1</dim>
					<dim>3</dim>
					<dim>192</dim>
					<dim>192</dim>
				</port>
				<port id="1" precision="FP16">
					<dim>1</dim>
					<dim>3</dim>
					<dim>192</dim>
					<dim>192</dim>
				</port>
				<port id="2" precision="FP16">
					<dim>1</dim>
					<dim>3</dim>
					<dim>192</dim>
					<dim>192</dim>
				</port>
				<port id="3" precision="FP16">
					<dim>1</dim>
					<dim>3</dim>
					<dim>192</dim>
					<dim>192</dim>
				</port>
			</input>
			<output>
				<port id="4" precision="FP16" names="/model.0/Concat_output_0">
					<dim>1</dim>
					<dim>12</dim>
					<dim>192</dim>
					<dim>192</dim>
				</port>
			</output>
		</layer>
		<layer id="26" name="model.0.conv.conv.weight" type="Const" version="opset1">
			<data element_type="f16" shape="16, 12, 3, 3" offset="224" size="3456" />
			<output>
				<port id="0" precision="FP16" names="model.0.conv.conv.weight">
					<dim>16</dim>
					<dim>12</dim>
					<dim>3</dim>
					<dim>3</dim>
				</port>
			</output>
		</layer>
		<layer id="27" name="/model.0/conv/conv/Conv/WithoutBiases" type="Convolution" version="opset1">
			<data strides="1, 1" dilations="1, 1" pads_begin="1, 1" pads_end="1, 1" auto_pad="explicit" />
			<input>
				<port id="0" precision="FP16">
					<dim>1</dim>
					<dim>12</dim>
					<dim>192</dim>
					<dim>192</dim>
				</port>
				<port id="1" precision="FP16">
					<dim>16</dim>
					<dim>12</dim>
					<dim>3</dim>
					<dim>3</dim>
				</port>
			</input>
			<output>
				<port id="2" precision="FP16">
					<dim>1</dim>
					<dim>16</dim>
					<dim>192</dim>
					<dim>192</dim>
				</port>
			</output>
		</layer>
		<layer id="28" name="Reshape_168" type="Const" version="opset1">
			<data element_type="f16" shape="1, 16, 1, 1" offset="3680" size="32" />
			<output>
				<port id="0" precision="FP16">
					<dim>1</dim>
					<dim>16</dim>
					<dim>1</dim>
					<dim>1</dim>
				</port>
			</output>
		</layer>
		<layer id="29" name="/model.0/conv/conv/Conv" type="Add" version="opset1">
			<data auto_broadcast="numpy" />
			<input>
				<port id="0" precision="FP16">
					<dim>1</dim>
					<dim>16</dim>
					<dim>192</dim>
					<dim>192</dim>
				</port>
				<port id="1" precision="FP16">
					<dim>1</dim>
					<dim>16</dim>
					<dim>1</dim>
					<dim>1</dim>
				</port>
			</input>
			<output>
				<port id="2" precision="FP16" names="/model.0/conv/conv/Conv_output_0">
					<dim>1</dim>
					<dim>16</dim>
					<dim>192</dim>
					<dim>192</dim>
				</port>
			</output>
		</layer>
		<layer id="30" name="/model.0/conv/act/Mul" type="Swish" version="opset4">
			<input>
				<port id="0" precision="FP16">
					<dim>1</dim>
					<dim>16</dim>
					<dim>192</dim>
					<dim>192</dim>
				</port>
			</input>
			<output>
				<port id="1" precision="FP16" names="/model.0/conv/act/Mul_output_0">
					<dim>1</dim>
					<dim>16</dim>
					<dim>192</dim>
					<dim>192</dim>
				</port>
			</output>
		</layer>
		<layer id="31" name="model.1.conv.weight" type="Const" version="opset1">
			<data element_type="f16" shape="32, 16, 3, 3" offset="3712" size="9216" />
			<output>
				<port id="0" precision="FP16" names="model.1.conv.weight">
					<dim>32</dim>
					<dim>16</dim>
					<dim>3</dim>
					<dim>3</dim>
				</port>
			</output>
		</layer>
		<layer id="32" name="/model.1/conv/Conv/WithoutBiases" type="Convolution" version="opset1">
			<data strides="2, 2" dilations="1, 1" pads_begin="1, 1" pads_end="1, 1" auto_pad="explicit" />
			<input>
				<port id="0" precision="FP16">
					<dim>1</dim>
					<dim>16</dim>
					<dim>192</dim>
					<dim>192</dim>
				</port>
				<port id="1" precision="FP16">
					<dim>32</dim>
					<dim>16</dim>
					<dim>3</dim>
					<dim>3</dim>
				</port>
			</input>
			<output>
				<port id="2" precision="FP16">
					<dim>1</dim>
					<dim>32</dim>
					<dim>96</dim>
					<dim>96</dim>
				</port>
			</output>
		</layer>
		<layer id="33" name="Reshape_218" type="Const" version="opset1">
			<data element_type="f16" shape="1, 32, 1, 1" offset="12928" size="64" />
			<output>
				<port id="0" precision="FP16">
					<dim>1</dim>
					<dim>32</dim>
					<dim>1</dim>
					<dim>1</dim>
				</port>
			</output>
		</layer>
		<layer id="34" name="/model.1/conv/Conv" type="Add" version="opset1">
			<data auto_broadcast="numpy" />
			<input>
				<port id="0" precision="FP16">
					<dim>1</dim>
					<dim>32</dim>
					<dim>96</dim>
					<dim>96</dim>
				</port>
				<port id="1" precision="FP16">
					<dim>1</dim>
					<dim>32</dim>
					<dim>1</dim>
					<dim>1</dim>
				</port>
			</input>
			<output>
				<port id="2" precision="FP16" names="/model.1/conv/Conv_output_0">
					<dim>1</dim>
					<dim>32</dim>
					<dim>96</dim>
					<dim>96</dim>
				</port>
			</output>
		</layer>
		<layer id="35" name="/model.1/act/Mul" type="Swish" version="opset4">
			<input>
				<port id="0" precision="FP16">
					<dim>1</dim>
					<dim>32</dim>
					<dim>96</dim>
					<dim>96</dim>
				</port>
			</input>
			<output>
				<port id="1" precision="FP16" names="/model.1/act/Mul_output_0">
					<dim>1</dim>
					<dim>32</dim>
					<dim>96</dim>
					<dim>96</dim>
				</port>
			</output>
		</layer>
		<layer id="36" name="model.2.cv1.conv.weight" type="Const" version="opset1">
			<data element_type="f16" shape="16, 32, 1, 1" offset="12992" size="1024" />
			<output>
				<port id="0" precision="FP16" names="model.2.cv1.conv.weight">
					<dim>16</dim>
					<dim>32</dim>
					<dim>1</dim>
					<dim>1</dim>
				</port>
			</output>
		</layer>
		<layer id="37" name="/model.2/cv1/conv/Conv/WithoutBiases" type="Convolution" version="opset1">
			<data strides="1, 1" dilations="1, 1" pads_begin="0, 0" pads_end="0, 0" auto_pad="explicit" />
			<input>
				<port id="0" precision="FP16">
					<dim>1</dim>
					<dim>32</dim>
					<dim>96</dim>
					<dim>96</dim>
				</port>
				<port id="1" precision="FP16">
					<dim>16</dim>
					<dim>32</dim>
					<dim>1</dim>
					<dim>1</dim>
				</port>
			</input>
			<output>
				<port id="2" precision="FP16">
					<dim>1</dim>
					<dim>16</dim>
					<dim>96</dim>
					<dim>96</dim>
				</port>
			</output>
		</layer>
		<layer id="38" name="Reshape_268" type="Const" version="opset1">
			<data element_type="f16" shape="1, 16, 1, 1" offset="14016" size="32" />
			<output>
				<port id="0" precision="FP16">
					<dim>1</dim>
					<dim>16</dim>
					<dim>1</dim>
					<dim>1</dim>
				</port>
			</output>
		</layer>
		<layer id="39" name="/model.2/cv1/conv/Conv" type="Add" version="opset1">
			<data auto_broadcast="numpy" />
			<input>
				<port id="0" precision="FP16">
					<dim>1</dim>
					<dim>16</dim>
					<dim>96</dim>
					<dim>96</dim>
				</port>
				<port id="1" precision="FP16">
					<dim>1</dim>
					<dim>16</dim>
					<dim>1</dim>
					<dim>1</dim>
				</port>
			</input>
			<output>
				<port id="2" precision="FP16" names="/model.2/cv1/conv/Conv_output_0">
					<dim>1</dim>
					<dim>16</dim>
					<dim>96</dim>
					<dim>96</dim>
				</port>
			</output>
		</layer>
		<layer id="40" name="/model.2/cv1/act/Mul" type="Swish" version="opset4">
			<input>
				<port id="0" precision="FP16">
					<dim>1</dim>
					<dim>16</dim>
					<dim>96</dim>
					<dim>96</dim>
				</port>
			</input>
			<output>
				<port id="1" precision="FP16" names="/model.2/cv1/act/Mul_output_0">
					<dim>1</dim>
					<dim>16</dim>
					<dim>96</dim>
					<dim>96</dim>
				</port>
			</output>
		</layer>
		<layer id="41" name="model.2.m.0.cv1.conv.weight" type="Const" version="opset1">
			<data element_type="f16" shape="16, 16, 1, 1" offset="14048" size="512" />
			<output>
				<port id="0" precision="FP16" names="model.2.m.0.cv1.conv.weight">
					<dim>16</dim>
					<dim>16</dim>
					<dim>1</dim>
					<dim>1</dim>
				</port>
			</output>
		</layer>
		<layer id="42" name="/model.2/m/m.0/cv1/conv/Conv/WithoutBiases" type="Convolution" version="opset1">
			<data strides="1, 1" dilations="1, 1" pads_begin="0, 0" pads_end="0, 0" auto_pad="explicit" />
			<input>
				<port id="0" precision="FP16">
					<dim>1</dim>
					<dim>16</dim>
					<dim>96</dim>
					<dim>96</dim>
				</port>
				<port id="1" precision="FP16">
					<dim>16</dim>
					<dim>16</dim>
					<dim>1</dim>
					<dim>1</dim>
				</port>
			</input>
			<output>
				<port id="2" precision="FP16">
					<dim>1</dim>
					<dim>16</dim>
					<dim>96</dim>
					<dim>96</dim>
				</port>
			</output>
		</layer>
		<layer id="43" name="Reshape_318" type="Const" version="opset1">
			<data element_type="f16" shape="1, 16, 1, 1" offset="14560" size="32" />
			<output>
				<port id="0" precision="FP16">
					<dim>1</dim>
					<dim>16</dim>
					<dim>1</dim>
					<dim>1</dim>
				</port>
			</output>
		</layer>
		<layer id="44" name="/model.2/m/m.0/cv1/conv/Conv" type="Add" version="opset1">
			<data auto_broadcast="numpy" />
			<input>
				<port id="0" precision="FP16">
					<dim>1</dim>
					<dim>16</dim>
					<dim>96</dim>
					<dim>96</dim>
				</port>
				<port id="1" precision="FP16">
					<dim>1</dim>
					<dim>16</dim>
					<dim>1</dim>
					<dim>1</dim>
				</port>
			</input>
			<output>
				<port id="2" precision="FP16" names="/model.2/m/m.0/cv1/conv/Conv_output_0">
					<dim>1</dim>
					<dim>16</dim>
					<dim>96</dim>
					<dim>96</dim>
				</port>
			</output>
		</layer>
		<layer id="45" name="/model.2/m/m.0/cv1/act/Mul" type="Swish" version="opset4">
			<input>
				<port id="0" precision="FP16">
					<dim>1</dim>
					<dim>16</dim>
					<dim>96</dim>
					<dim>96</dim>
				</port>
			</input>
			<output>
				<port id="1" precision="FP16" names="/model.2/m/m.0/cv1/act/Mul_output_0">
					<dim>1</dim>
					<dim>16</dim>
					<dim>96</dim>
					<dim>96</dim>
				</port>
			</output>
		</layer>
		<layer id="46" name="model.2.m.0.cv2.conv.weight" type="Const" version="opset1">
			<data element_type="f16" shape="16, 16, 3, 3" offset="14592" size="4608" />
			<output>
				<port id="0" precision="FP16" names="model.2.m.0.cv2.conv.weight">
					<dim>16</dim>
					<dim>16</dim>
					<dim>3</dim>
					<dim>3</dim>
				</port>
			</output>
		</layer>
		<layer id="47" name="/model.2/m/m.0/cv2/conv/Conv/WithoutBiases" type="Convolution" version="opset1">
			<data strides="1, 1" dilations="1, 1" pads_begin="1, 1" pads_end="1, 1" auto_pad="explicit" />
			<input>
				<port id="0" precision="FP16">
					<dim>1</dim>
					<dim>16</dim>
					<dim>96</dim>
					<dim>96</dim>
				</port>
				<port id="1" precision="FP16">
					<dim>16</dim>
					<dim>16</dim>
					<dim>3</dim>
					<dim>3</dim>
				</port>
			</input>
			<output>
				<port id="2" precision="FP16">
					<dim>1</dim>
					<dim>16</dim>
					<dim>96</dim>
					<dim>96</dim>
				</port>
			</output>
		</layer>
		<layer id="48" name="Reshape_368" type="Const" version="opset1">
			<data element_type="f16" shape="1, 16, 1, 1" offset="19200" size="32" />
			<output>
				<port id="0" precision="FP16">
					<dim>1</dim>
					<dim>16</dim>
					<dim>1</dim>
					<dim>1</dim>
				</port>
			</output>
		</layer>
		<layer id="49" name="/model.2/m/m.0/cv2/conv/Conv" type="Add" version="opset1">
			<data auto_broadcast="numpy" />
			<input>
				<port id="0" precision="FP16">
					<dim>1</dim>
					<dim>16</dim>
					<dim>96</dim>
					<dim>96</dim>
				</port>
				<port id="1" precision="FP16">
					<dim>1</dim>
					<dim>16</dim>
					<dim>1</dim>
					<dim>1</dim>
				</port>
			</input>
			<output>
				<port id="2" precision="FP16" names="/model.2/m/m.0/cv2/conv/Conv_output_0">
					<dim>1</dim>
					<dim>16</dim>
					<dim>96</dim>
					<dim>96</dim>
				</port>
			</output>
		</layer>
		<layer id="50" name="/model.2/m/m.0/cv2/act/Mul" type="Swish" version="opset4">
			<input>
				<port id="0" precision="FP16">
					<dim>1</dim>
					<dim>16</dim>
					<dim>96</dim>
					<dim>96</dim>
				</port>
			</input>
			<output>
				<port id="1" precision="FP16" names="/model.2/m/m.0/cv2/act/Mul_output_0">
					<dim>1</dim>
					<dim>16</dim>
					<dim>96</dim>
					<dim>96</dim>
				</port>
			</output>
		</layer>
		<layer id="51" name="/model.2/m/m.0/Add" type="Add" version="opset1">
			<data auto_broadcast="numpy" />
			<input>
				<port id="0" precision="FP16">
					<dim>1</dim>
					<dim>16</dim>
					<dim>96</dim>
					<dim>96</dim>
				</port>
				<port id="1" precision="FP16">
					<dim>1</dim>
					<dim>16</dim>
					<dim>96</dim>
					<dim>96</dim>
				</port>
			</input>
			<output>
				<port id="2" precision="FP16" names="/model.2/m/m.0/Add_output_0">
					<dim>1</dim>
					<dim>16</dim>
					<dim>96</dim>
					<dim>96</dim>
				</port>
			</output>
		</layer>
		<layer id="52" name="model.2.cv2.conv.weight" type="Const" version="opset1">
			<data element_type="f16" shape="16, 32, 1, 1" offset="19232" size="1024" />
			<output>
				<port id="0" precision="FP16" names="model.2.cv2.conv.weight">
					<dim>16</dim>
					<dim>32</dim>
					<dim>1</dim>
					<dim>1</dim>
				</port>
			</output>
		</layer>
		<layer id="53" name="/model.2/cv2/conv/Conv/WithoutBiases" type="Convolution" version="opset1">
			<data strides="1, 1" dilations="1, 1" pads_begin="0, 0" pads_end="0, 0" auto_pad="explicit" />
			<input>
				<port id="0" precision="FP16">
					<dim>1</dim>
					<dim>32</dim>
					<dim>96</dim>
					<dim>96</dim>
				</port>
				<port id="1" precision="FP16">
					<dim>16</dim>
					<dim>32</dim>
					<dim>1</dim>
					<dim>1</dim>
				</port>
			</input>
			<output>
				<port id="2" precision="FP16">
					<dim>1</dim>
					<dim>16</dim>
					<dim>96</dim>
					<dim>96</dim>
				</port>
			</output>
		</layer>
		<layer id="54" name="Reshape_419" type="Const" version="opset1">
			<data element_type="f16" shape="1, 16, 1, 1" offset="20256" size="32" />
			<output>
				<port id="0" precision="FP16">
					<dim>1</dim>
					<dim>16</dim>
					<dim>1</dim>
					<dim>1</dim>
				</port>
			</output>
		</layer>
		<layer id="55" name="/model.2/cv2/conv/Conv" type="Add" version="opset1">
			<data auto_broadcast="numpy" />
			<input>
				<port id="0" precision="FP16">
					<dim>1</dim>
					<dim>16</dim>
					<dim>96</dim>
					<dim>96</dim>
				</port>
				<port id="1" precision="FP16">
					<dim>1</dim>
					<dim>16</dim>
					<dim>1</dim>
					<dim>1</dim>
				</port>
			</input>
			<output>
				<port id="2" precision="FP16" names="/model.2/cv2/conv/Conv_output_0">
					<dim>1</dim>
					<dim>16</dim>
					<dim>96</dim>
					<dim>96</dim>
				</port>
			</output>
		</layer>
		<layer id="56" name="/model.2/cv2/act/Mul" type="Swish" version="opset4">
			<input>
				<port id="0" precision="FP16">
					<dim>1</dim>
					<dim>16</dim>
					<dim>96</dim>
					<dim>96</dim>
				</port>
			</input>
			<output>
				<port id="1" precision="FP16" names="/model.2/cv2/act/Mul_output_0">
					<dim>1</dim>
					<dim>16</dim>
					<dim>96</dim>
					<dim>96</dim>
				</port>
			</output>
		</layer>
		<layer id="57" name="/model.2/Concat" type="Concat" version="opset1">
			<data axis="1" />
			<input>
				<port id="0" precision="FP16">
					<dim>1</dim>
					<dim>16</dim>
					<dim>96</dim>
					<dim>96</dim>
				</port>
				<port id="1" precision="FP16">
					<dim>1</dim>
					<dim>16</dim>
					<dim>96</dim>
					<dim>96</dim>
				</port>
			</input>
			<output>
				<port id="2" precision="FP16" names="/model.2/Concat_output_0">
					<dim>1</dim>
					<dim>32</dim>
					<dim>96</dim>
					<dim>96</dim>
				</port>
			</output>
		</layer>
		<layer id="58" name="model.2.cv3.conv.weight" type="Const" version="opset1">
			<data element_type="f16" shape="32, 32, 1, 1" offset="20288" size="2048" />
			<output>
				<port id="0" precision="FP16" names="model.2.cv3.conv.weight">
					<dim>32</dim>
					<dim>32</dim>
					<dim>1</dim>
					<dim>1</dim>
				</port>
			</output>
		</layer>
		<layer id="59" name="/model.2/cv3/conv/Conv/WithoutBiases" type="Convolution" version="opset1">
			<data strides="1, 1" dilations="1, 1" pads_begin="0, 0" pads_end="0, 0" auto_pad="explicit" />
			<input>
				<port id="0" precision="FP16">
					<dim>1</dim>
					<dim>32</dim>
					<dim>96</dim>
					<dim>96</dim>
				</port>
				<port id="1" precision="FP16">
					<dim>32</dim>
					<dim>32</dim>
					<dim>1</dim>
					<dim>1</dim>
				</port>
			</input>
			<output>
				<port id="2" precision="FP16">
					<dim>1</dim>
					<dim>32</dim>
					<dim>96</dim>
					<dim>96</dim>
				</port>
			</output>
		</layer>
		<layer id="60" name="Reshape_470" type="Const" version="opset1">
			<data element_type="f16" shape="1, 32, 1, 1" offset="22336" size="64" />
			<output>
				<port id="0" precision="FP16">
					<dim>1</dim>
					<dim>32</dim>
					<dim>1</dim>
					<dim>1</dim>
				</port>
			</output>
		</layer>
		<layer id="61" name="/model.2/cv3/conv/Conv" type="Add" version="opset1">
			<data auto_broadcast="numpy" />
			<input>
				<port id="0" precision="FP16">
					<dim>1</dim>
					<dim>32</dim>
					<dim>96</dim>
					<dim>96</dim>
				</port>
				<port id="1" precision="FP16">
					<dim>1</dim>
					<dim>32</dim>
					<dim>1</dim>
					<dim>1</dim>
				</port>
			</input>
			<output>
				<port id="2" precision="FP16" names="/model.2/cv3/conv/Conv_output_0">
					<dim>1</dim>
					<dim>32</dim>
					<dim>96</dim>
					<dim>96</dim>
				</port>
			</output>
		</layer>
		<layer id="62" name="/model.2/cv3/act/Mul" type="Swish" version="opset4">
			<input>
				<port id="0" precision="FP16">
					<dim>1</dim>
					<dim>32</dim>
					<dim>96</dim>
					<dim>96</dim>
				</port>
			</input>
			<output>
				<port id="1" precision="FP16" names="/model.2/cv3/act/Mul_output_0">
					<dim>1</dim>
					<dim>32</dim>
					<dim>96</dim>
					<dim>96</dim>
				</port>
			</output>
		</layer>
		<layer id="63" name="model.3.conv.weight" type="Const" version="opset1">
			<data element_type="f16" shape="56, 32, 3, 3" offset="22400" size="32256" />
			<output>
				<port id="0" precision="FP16" names="model.3.conv.weight">
					<dim>56</dim>
					<dim>32</dim>
					<dim>3</dim>
					<dim>3</dim>
				</port>
			</output>
		</layer>
		<layer id="64" name="/model.3/conv/Conv/WithoutBiases" type="Convolution" version="opset1">
			<data strides="2, 2" dilations="1, 1" pads_begin="1, 1" pads_end="1, 1" auto_pad="explicit" />
			<input>
				<port id="0" precision="FP16">
					<dim>1</dim>
					<dim>32</dim>
					<dim>96</dim>
					<dim>96</dim>
				</port>
				<port id="1" precision="FP16">
					<dim>56</dim>
					<dim>32</dim>
					<dim>3</dim>
					<dim>3</dim>
				</port>
			</input>
			<output>
				<port id="2" precision="FP16">
					<dim>1</dim>
					<dim>56</dim>
					<dim>48</dim>
					<dim>48</dim>
				</port>
			</output>
		</layer>
		<layer id="65" name="Reshape_520" type="Const" version="opset1">
			<data element_type="f16" shape="1, 56, 1, 1" offset="54656" size="112" />
			<output>
				<port id="0" precision="FP16">
					<dim>1</dim>
					<dim>56</dim>
					<dim>1</dim>
					<dim>1</dim>
				</port>
			</output>
		</layer>
		<layer id="66" name="/model.3/conv/Conv" type="Add" version="opset1">
			<data auto_broadcast="numpy" />
			<input>
				<port id="0" precision="FP16">
					<dim>1</dim>
					<dim>56</dim>
					<dim>48</dim>
					<dim>48</dim>
				</port>
				<port id="1" precision="FP16">
					<dim>1</dim>
					<dim>56</dim>
					<dim>1</dim>
					<dim>1</dim>
				</port>
			</input>
			<output>
				<port id="2" precision="FP16" names="/model.3/conv/Conv_output_0">
					<dim>1</dim>
					<dim>56</dim>
					<dim>48</dim>
					<dim>48</dim>
				</port>
			</output>
		</layer>
		<layer id="67" name="/model.3/act/Mul" type="Swish" version="opset4">
			<input>
				<port id="0" precision="FP16">
					<dim>1</dim>
					<dim>56</dim>
					<dim>48</dim>
					<dim>48</dim>
				</port>
			</input>
			<output>
				<port id="1" precision="FP16" names="/model.3/act/Mul_output_0">
					<dim>1</dim>
					<dim>56</dim>
					<dim>48</dim>
					<dim>48</dim>
				</port>
			</output>
		</layer>
		<layer id="68" name="model.4.cv1.conv.weight" type="Const" version="opset1">
			<data element_type="f16" shape="28, 56, 1, 1" offset="54768" size="3136" />
			<output>
				<port id="0" precision="FP16" names="model.4.cv1.conv.weight">
					<dim>28</dim>
					<dim>56</dim>
					<dim>1</dim>
					<dim>1</dim>
				</port>
			</output>
		</layer>
		<layer id="69" name="/model.4/cv1/conv/Conv/WithoutBiases" type="Convolution" version="opset1">
			<data strides="1, 1" dilations="1, 1" pads_begin="0, 0" pads_end="0, 0" auto_pad="explicit" />
			<input>
				<port id="0" precision="FP16">
					<dim>1</dim>
					<dim>56</dim>
					<dim>48</dim>
					<dim>48</dim>
				</port>
				<port id="1" precision="FP16">
					<dim>28</dim>
					<dim>56</dim>
					<dim>1</dim>
					<dim>1</dim>
				</port>
			</input>
			<output>
				<port id="2" precision="FP16">
					<dim>1</dim>
					<dim>28</dim>
					<dim>48</dim>
					<dim>48</dim>
				</port>
			</output>
		</layer>
		<layer id="70" name="Reshape_570" type="Const" version="opset1">
			<data element_type="f16" shape="1, 28, 1, 1" offset="57904" size="56" />
			<output>
				<port id="0" precision="FP16">
					<dim>1</dim>
					<dim>28</dim>
					<dim>1</dim>
					<dim>1</dim>
				</port>
			</output>
		</layer>
		<layer id="71" name="/model.4/cv1/conv/Conv" type="Add" version="opset1">
			<data auto_broadcast="numpy" />
			<input>
				<port id="0" precision="FP16">
					<dim>1</dim>
					<dim>28</dim>
					<dim>48</dim>
					<dim>48</dim>
				</port>
				<port id="1" precision="FP16">
					<dim>1</dim>
					<dim>28</dim>
					<dim>1</dim>
					<dim>1</dim>
				</port>
			</input>
			<output>
				<port id="2" precision="FP16" names="/model.4/cv1/conv/Conv_output_0">
					<dim>1</dim>
					<dim>28</dim>
					<dim>48</dim>
					<dim>48</dim>
				</port>
			</output>
		</layer>
		<layer id="72" name="/model.4/cv1/act/Mul" type="Swish" version="opset4">
			<input>
				<port id="0" precision="FP16">
					<dim>1</dim>
					<dim>28</dim>
					<dim>48</dim>
					<dim>48</dim>
				</port>
			</input>
			<output>
				<port id="1" precision="FP16" names="/model.4/cv1/act/Mul_output_0">
					<dim>1</dim>
					<dim>28</dim>
					<dim>48</dim>
					<dim>48</dim>
				</port>
			</output>
		</layer>
		<layer id="73" name="model.4.m.0.cv1.conv.weight" type="Const" version="opset1">
			<data element_type="f16" shape="28, 28, 1, 1" offset="57960" size="1568" />
			<output>
				<port id="0" precision="FP16" names="model.4.m.0.cv1.conv.weight">
					<dim>28</dim>
					<dim>28</dim>
					<dim>1</dim>
					<dim>1</dim>
				</port>
			</output>
		</layer>
		<layer id="74" name="/model.4/m/m.0/cv1/conv/Conv/WithoutBiases" type="Convolution" version="opset1">
			<data strides="1, 1" dilations="1, 1" pads_begin="0, 0" pads_end="0, 0" auto_pad="explicit" />
			<input>
				<port id="0" precision="FP16">
					<dim>1</dim>
					<dim>28</dim>
					<dim>48</dim>
					<dim>48</dim>
				</port>
				<port id="1" precision="FP16">
					<dim>28</dim>
					<dim>28</dim>
					<dim>1</dim>
					<dim>1</dim>
				</port>
			</input>
			<output>
				<port id="2" precision="FP16">
					<dim>1</dim>
					<dim>28</dim>
					<dim>48</dim>
					<dim>48</dim>
				</port>
			</output>
		</layer>
		<layer id="75" name="Reshape_620" type="Const" version="opset1">
			<data element_type="f16" shape="1, 28, 1, 1" offset="59528" size="56" />
			<output>
				<port id="0" precision="FP16">
					<dim>1</dim>
					<dim>28</dim>
					<dim>1</dim>
					<dim>1</dim>
				</port>
			</output>
		</layer>
		<layer id="76" name="/model.4/m/m.0/cv1/conv/Conv" type="Add" version="opset1">
			<data auto_broadcast="numpy" />
			<input>
				<port id="0" precision="FP16">
					<dim>1</dim>
					<dim>28</dim>
					<dim>48</dim>
					<dim>48</dim>
				</port>
				<port id="1" precision="FP16">
					<dim>1</dim>
					<dim>28</dim>
					<dim>1</dim>
					<dim>1</dim>
				</port>
			</input>
			<output>
				<port id="2" precision="FP16" names="/model.4/m/m.0/cv1/conv/Conv_output_0">
					<dim>1</dim>
					<dim>28</dim>
					<dim>48</dim>
					<dim>48</dim>
				</port>
			</output>
		</layer>
		<layer id="77" name="/model.4/m/m.0/cv1/act/Mul" type="Swish" version="opset4">
			<input>
				<port id="0" precision="FP16">
					<dim>1</dim>
					<dim>28</dim>
					<dim>48</dim>
					<dim>48</dim>
				</port>
			</input>
			<output>
				<port id="1" precision="FP16" names="/model.4/m/m.0/cv1/act/Mul_output_0">
					<dim>1</dim>
					<dim>28</dim>
					<dim>48</dim>
					<dim>48</dim>
				</port>
			</output>
		</layer>
		<layer id="78" name="model.4.m.0.cv2.conv.weight" type="Const" version="opset1">
			<data element_type="f16" shape="28, 28, 3, 3" offset="59584" size="14112" />
			<output>
				<port id="0" precision="FP16" names="model.4.m.0.cv2.conv.weight">
					<dim>28</dim>
					<dim>28</dim>
					<dim>3</dim>
					<dim>3</dim>
				</port>
			</output>
		</layer>
		<layer id="79" name="/model.4/m/m.0/cv2/conv/Conv/WithoutBiases" type="Convolution" version="opset1">
			<data strides="1, 1" dilations="1, 1" pads_begin="1, 1" pads_end="1, 1" auto_pad="explicit" />
			<input>
				<port id="0" precision="FP16">
					<dim>1</dim>
					<dim>28</dim>
					<dim>48</dim>
					<dim>48</dim>
				</port>
				<port id="1" precision="FP16">
					<dim>28</dim>
					<dim>28</dim>
					<dim>3</dim>
					<dim>3</dim>
				</port>
			</input>
			<output>
				<port id="2" precision="FP16">
					<dim>1</dim>
					<dim>28</dim>
					<dim>48</dim>
					<dim>48</dim>
				</port>
			</output>
		</layer>
		<layer id="80" name="Reshape_670" type="Const" version="opset1">
			<data element_type="f16" shape="1, 28, 1, 1" offset="73696" size="56" />
			<output>
				<port id="0" precision="FP16">
					<dim>1</dim>
					<dim>28</dim>
					<dim>1</dim>
					<dim>1</dim>
				</port>
			</output>
		</layer>
		<layer id="81" name="/model.4/m/m.0/cv2/conv/Conv" type="Add" version="opset1">
			<data auto_broadcast="numpy" />
			<input>
				<port id="0" precision="FP16">
					<dim>1</dim>
					<dim>28</dim>
					<dim>48</dim>
					<dim>48</dim>
				</port>
				<port id="1" precision="FP16">
					<dim>1</dim>
					<dim>28</dim>
					<dim>1</dim>
					<dim>1</dim>
				</port>
			</input>
			<output>
				<port id="2" precision="FP16" names="/model.4/m/m.0/cv2/conv/Conv_output_0">
					<dim>1</dim>
					<dim>28</dim>
					<dim>48</dim>
					<dim>48</dim>
				</port>
			</output>
		</layer>
		<layer id="82" name="/model.4/m/m.0/cv2/act/Mul" type="Swish" version="opset4">
			<input>
				<port id="0" precision="FP16">
					<dim>1</dim>
					<dim>28</dim>
					<dim>48</dim>
					<dim>48</dim>
				</port>
			</input>
			<output>
				<port id="1" precision="FP16" names="/model.4/m/m.0/cv2/act/Mul_output_0">
					<dim>1</dim>
					<dim>28</dim>
					<dim>48</dim>
					<dim>48</dim>
				</port>
			</output>
		</layer>
		<layer id="83" name="/model.4/m/m.0/Add" type="Add" version="opset1">
			<data auto_broadcast="numpy" />
			<input>
				<port id="0" precision="FP16">
					<dim>1</dim>
					<dim>28</dim>
					<dim>48</dim>
					<dim>48</dim>
				</port>
				<port id="1" precision="FP16">
					<dim>1</dim>
					<dim>28</dim>
					<dim>48</dim>
					<dim>48</dim>
				</port>
			</input>
			<output>
				<port id="2" precision="FP16" names="/model.4/m/m.0/Add_output_0">
					<dim>1</dim>
					<dim>28</dim>
					<dim>48</dim>
					<dim>48</dim>
				</port>
			</output>
		</layer>
		<layer id="84" name="model.4.m.1.cv1.conv.weight" type="Const" version="opset1">
			<data element_type="f16" shape="28, 28, 1, 1" offset="73752" size="1568" />
			<output>
				<port id="0" precision="FP16" names="model.4.m.1.cv1.conv.weight">
					<dim>28</dim>
					<dim>28</dim>
					<dim>1</dim>
					<dim>1</dim>
				</port>
			</output>
		</layer>
		<layer id="85" name="/model.4/m/m.1/cv1/conv/Conv/WithoutBiases" type="Convolution" version="opset1">
			<data strides="1, 1" dilations="1, 1" pads_begin="0, 0" pads_end="0, 0" auto_pad="explicit" />
			<input>
				<port id="0" precision="FP16">
					<dim>1</dim>
					<dim>28</dim>
					<dim>48</dim>
					<dim>48</dim>
				</port>
				<port id="1" precision="FP16">
					<dim>28</dim>
					<dim>28</dim>
					<dim>1</dim>
					<dim>1</dim>
				</port>
			</input>
			<output>
				<port id="2" precision="FP16">
					<dim>1</dim>
					<dim>28</dim>
					<dim>48</dim>
					<dim>48</dim>
				</port>
			</output>
		</layer>
		<layer id="86" name="Reshape_721" type="Const" version="opset1">
			<data element_type="f16" shape="1, 28, 1, 1" offset="75320" size="56" />
			<output>
				<port id="0" precision="FP16">
					<dim>1</dim>
					<dim>28</dim>
					<dim>1</dim>
					<dim>1</dim>
				</port>
			</output>
		</layer>
		<layer id="87" name="/model.4/m/m.1/cv1/conv/Conv" type="Add" version="opset1">
			<data auto_broadcast="numpy" />
			<input>
				<port id="0" precision="FP16">
					<dim>1</dim>
					<dim>28</dim>
					<dim>48</dim>
					<dim>48</dim>
				</port>
				<port id="1" precision="FP16">
					<dim>1</dim>
					<dim>28</dim>
					<dim>1</dim>
					<dim>1</dim>
				</port>
			</input>
			<output>
				<port id="2" precision="FP16" names="/model.4/m/m.1/cv1/conv/Conv_output_0">
					<dim>1</dim>
					<dim>28</dim>
					<dim>48</dim>
					<dim>48</dim>
				</port>
			</output>
		</layer>
		<layer id="88" name="/model.4/m/m.1/cv1/act/Mul" type="Swish" version="opset4">
			<input>
				<port id="0" precision="FP16">
					<dim>1</dim>
					<dim>28</dim>
					<dim>48</dim>
					<dim>48</dim>
				</port>
			</input>
			<output>
				<port id="1" precision="FP16" names="/model.4/m/m.1/cv1/act/Mul_output_0">
					<dim>1</dim>
					<dim>28</dim>
					<dim>48</dim>
					<dim>48</dim>
				</port>
			</output>
		</layer>
		<layer id="89" name="model.4.m.1.cv2.conv.weight" type="Const" version="opset1">
			<data element_type="f16" shape="28, 28, 3, 3" offset="75376" size="14112" />
			<output>
				<port id="0" precision="FP16" names="model.4.m.1.cv2.conv.weight">
					<dim>28</dim>
					<dim>28</dim>
					<dim>3</dim>
					<dim>3</dim>
				</port>
			</output>
		</layer>
		<layer id="90" name="/model.4/m/m.1/cv2/conv/Conv/WithoutBiases" type="Convolution" version="opset1">
			<data strides="1, 1" dilations="1, 1" pads_begin="1, 1" pads_end="1, 1" auto_pad="explicit" />
			<input>
				<port id="0" precision="FP16">
					<dim>1</dim>
					<dim>28</dim>
					<dim>48</dim>
					<dim>48</dim>
				</port>
				<port id="1" precision="FP16">
					<dim>28</dim>
					<dim>28</dim>
					<dim>3</dim>
					<dim>3</dim>
				</port>
			</input>
			<output>
				<port id="2" precision="FP16">
					<dim>1</dim>
					<dim>28</dim>
					<dim>48</dim>
					<dim>48</dim>
				</port>
			</output>
		</layer>
		<layer id="91" name="Reshape_771" type="Const" version="opset1">
			<data element_type="f16" shape="1, 28, 1, 1" offset="89488" size="56" />
			<output>
				<port id="0" precision="FP16">
					<dim>1</dim>
					<dim>28</dim>
					<dim>1</dim>
					<dim>1</dim>
				</port>
			</output>
		</layer>
		<layer id="92" name="/model.4/m/m.1/cv2/conv/Conv" type="Add" version="opset1">
			<data auto_broadcast="numpy" />
			<input>
				<port id="0" precision="FP16">
					<dim>1</dim>
					<dim>28</dim>
					<dim>48</dim>
					<dim>48</dim>
				</port>
				<port id="1" precision="FP16">
					<dim>1</dim>
					<dim>28</dim>
					<dim>1</dim>
					<dim>1</dim>
				</port>
			</input>
			<output>
				<port id="2" precision="FP16" names="/model.4/m/m.1/cv2/conv/Conv_output_0">
					<dim>1</dim>
					<dim>28</dim>
					<dim>48</dim>
					<dim>48</dim>
				</port>
			</output>
		</layer>
		<layer id="93" name="/model.4/m/m.1/cv2/act/Mul" type="Swish" version="opset4">
			<input>
				<port id="0" precision="FP16">
					<dim>1</dim>
					<dim>28</dim>
					<dim>48</dim>
					<dim>48</dim>
				</port>
			</input>
			<output>
				<port id="1" precision="FP16" names="/model.4/m/m.1/cv2/act/Mul_output_0">
					<dim>1</dim>
					<dim>28</dim>
					<dim>48</dim>
					<dim>48</dim>
				</port>
			</output>
		</layer>
		<layer id="94" name="/model.4/m/m.1/Add" type="Add" version="opset1">
			<data auto_broadcast="numpy" />
			<input>
				<port id="0" precision="FP16">
					<dim>1</dim>
					<dim>28</dim>
					<dim>48</dim>
					<dim>48</dim>
				</port>
				<port id="1" precision="FP16">
					<dim>1</dim>
					<dim>28</dim>
					<dim>48</dim>
					<dim>48</dim>
				</port>
			</input>
			<output>
				<port id="2" precision="FP16" names="/model.4/m/m.1/Add_output_0">
					<dim>1</dim>
					<dim>28</dim>
					<dim>48</dim>
					<dim>48</dim>
				</port>
			</output>
		</layer>
		<layer id="95" name="model.4.cv2.conv.weight" type="Const" version="opset1">
			<data element_type="f16" shape="28, 56, 1, 1" offset="89544" size="3136" />
			<output>
				<port id="0" precision="FP16" names="model.4.cv2.conv.weight">
					<dim>28</dim>
					<dim>56</dim>
					<dim>1</dim>
					<dim>1</dim>
				</port>
			</output>
		</layer>
		<layer id="96" name="/model.4/cv2/conv/Conv/WithoutBiases" type="Convolution" version="opset1">
			<data strides="1, 1" dilations="1, 1" pads_begin="0, 0" pads_end="0, 0" auto_pad="explicit" />
			<input>
				<port id="0" precision="FP16">
					<dim>1</dim>
					<dim>56</dim>
					<dim>48</dim>
					<dim>48</dim>
				</port>
				<port id="1" precision="FP16">
					<dim>28</dim>
					<dim>56</dim>
					<dim>1</dim>
					<dim>1</dim>
				</port>
			</input>
			<output>
				<port id="2" precision="FP16">
					<dim>1</dim>
					<dim>28</dim>
					<dim>48</dim>
					<dim>48</dim>
				</port>
			</output>
		</layer>
		<layer id="97" name="Reshape_822" type="Const" version="opset1">
			<data element_type="f16" shape="1, 28, 1, 1" offset="92680" size="56" />
			<output>
				<port id="0" precision="FP16">
					<dim>1</dim>
					<dim>28</dim>
					<dim>1</dim>
					<dim>1</dim>
				</port>
			</output>
		</layer>
		<layer id="98" name="/model.4/cv2/conv/Conv" type="Add" version="opset1">
			<data auto_broadcast="numpy" />
			<input>
				<port id="0" precision="FP16">
					<dim>1</dim>
					<dim>28</dim>
					<dim>48</dim>
					<dim>48</dim>
				</port>
				<port id="1" precision="FP16">
					<dim>1</dim>
					<dim>28</dim>
					<dim>1</dim>
					<dim>1</dim>
				</port>
			</input>
			<output>
				<port id="2" precision="FP16" names="/model.4/cv2/conv/Conv_output_0">
					<dim>1</dim>
					<dim>28</dim>
					<dim>48</dim>
					<dim>48</dim>
				</port>
			</output>
		</layer>
		<layer id="99" name="/model.4/cv2/act/Mul" type="Swish" version="opset4">
			<input>
				<port id="0" precision="FP16">
					<dim>1</dim>
					<dim>28</dim>
					<dim>48</dim>
					<dim>48</dim>
				</port>
			</input>
			<output>
				<port id="1" precision="FP16" names="/model.4/cv2/act/Mul_output_0">
					<dim>1</dim>
					<dim>28</dim>
					<dim>48</dim>
					<dim>48</dim>
				</port>
			</output>
		</layer>
		<layer id="100" name="/model.4/Concat" type="Concat" version="opset1">
			<data axis="1" />
			<input>
				<port id="0" precision="FP16">
					<dim>1</dim>
					<dim>28</dim>
					<dim>48</dim>
					<dim>48</dim>
				</port>
				<port id="1" precision="FP16">
					<dim>1</dim>
					<dim>28</dim>
					<dim>48</dim>
					<dim>48</dim>
				</port>
			</input>
			<output>
				<port id="2" precision="FP16" names="/model.4/Concat_output_0">
					<dim>1</dim>
					<dim>56</dim>
					<dim>48</dim>
					<dim>48</dim>
				</port>
			</output>
		</layer>
		<layer id="101" name="model.4.cv3.conv.weight" type="Const" version="opset1">
			<data element_type="f16" shape="56, 56, 1, 1" offset="92736" size="6272" />
			<output>
				<port id="0" precision="FP16" names="model.4.cv3.conv.weight">
					<dim>56</dim>
					<dim>56</dim>
					<dim>1</dim>
					<dim>1</dim>
				</port>
			</output>
		</layer>
		<layer id="102" name="/model.4/cv3/conv/Conv/WithoutBiases" type="Convolution" version="opset1">
			<data strides="1, 1" dilations="1, 1" pads_begin="0, 0" pads_end="0, 0" auto_pad="explicit" />
			<input>
				<port id="0" precision="FP16">
					<dim>1</dim>
					<dim>56</dim>
					<dim>48</dim>
					<dim>48</dim>
				</port>
				<port id="1" precision="FP16">
					<dim>56</dim>
					<dim>56</dim>
					<dim>1</dim>
					<dim>1</dim>
				</port>
			</input>
			<output>
				<port id="2" precision="FP16">
					<dim>1</dim>
					<dim>56</dim>
					<dim>48</dim>
					<dim>48</dim>
				</port>
			</output>
		</layer>
		<layer id="103" name="Reshape_873" type="Const" version="opset1">
			<data element_type="f16" shape="1, 56, 1, 1" offset="99008" size="112" />
			<output>
				<port id="0" precision="FP16">
					<dim>1</dim>
					<dim>56</dim>
					<dim>1</dim>
					<dim>1</dim>
				</port>
			</output>
		</layer>
		<layer id="104" name="/model.4/cv3/conv/Conv" type="Add" version="opset1">
			<data auto_broadcast="numpy" />
			<input>
				<port id="0" precision="FP16">
					<dim>1</dim>
					<dim>56</dim>
					<dim>48</dim>
					<dim>48</dim>
				</port>
				<port id="1" precision="FP16">
					<dim>1</dim>
					<dim>56</dim>
					<dim>1</dim>
					<dim>1</dim>
				</port>
			</input>
			<output>
				<port id="2" precision="FP16" names="/model.4/cv3/conv/Conv_output_0">
					<dim>1</dim>
					<dim>56</dim>
					<dim>48</dim>
					<dim>48</dim>
				</port>
			</output>
		</layer>
		<layer id="105" name="/model.4/cv3/act/Mul" type="Swish" version="opset4">
			<input>
				<port id="0" precision="FP16">
					<dim>1</dim>
					<dim>56</dim>
					<dim>48</dim>
					<dim>48</dim>
				</port>
			</input>
			<output>
				<port id="1" precision="FP16" names="/model.4/cv3/act/Mul_output_0">
					<dim>1</dim>
					<dim>56</dim>
					<dim>48</dim>
					<dim>48</dim>
				</port>
			</output>
		</layer>
		<layer id="106" name="model.5.conv.weight" type="Const" version="opset1">
			<data element_type="f16" shape="104, 56, 3, 3" offset="99120" size="104832" />
			<output>
				<port id="0" precision="FP16" names="model.5.conv.weight">
					<dim>104</dim>
					<dim>56</dim>
					<dim>3</dim>
					<dim>3</dim>
				</port>
			</output>
		</layer>
		<layer id="107" name="/model.5/conv/Conv/WithoutBiases" type="Convolution" version="opset1">
			<data strides="2, 2" dilations="1, 1" pads_begin="1, 1" pads_end="1, 1" auto_pad="explicit" />
			<input>
				<port id="0" precision="FP16">
					<dim>1</dim>
					<dim>56</dim>
					<dim>48</dim>
					<dim>48</dim>
				</port>
				<port id="1" precision="FP16">
					<dim>104</dim>
					<dim>56</dim>
					<dim>3</dim>
					<dim>3</dim>
				</port>
			</input>
			<output>
				<port id="2" precision="FP16">
					<dim>1</dim>
					<dim>104</dim>
					<dim>24</dim>
					<dim>24</dim>
				</port>
			</output>
		</layer>
		<layer id="108" name="Reshape_923" type="Const" version="opset1">
			<data element_type="f16" shape="1, 104, 1, 1" offset="203952" size="208" />
			<output>
				<port id="0" precision="FP16">
					<dim>1</dim>
					<dim>104</dim>
					<dim>1</dim>
					<dim>1</dim>
				</port>
			</output>
		</layer>
		<layer id="109" name="/model.5/conv/Conv" type="Add" version="opset1">
			<data auto_broadcast="numpy" />
			<input>
				<port id="0" precision="FP16">
					<dim>1</dim>
					<dim>104</dim>
					<dim>24</dim>
					<dim>24</dim>
				</port>
				<port id="1" precision="FP16">
					<dim>1</dim>
					<dim>104</dim>
					<dim>1</dim>
					<dim>1</dim>
				</port>
			</input>
			<output>
				<port id="2" precision="FP16" names="/model.5/conv/Conv_output_0">
					<dim>1</dim>
					<dim>104</dim>
					<dim>24</dim>
					<dim>24</dim>
				</port>
			</output>
		</layer>
		<layer id="110" name="/model.5/act/Mul" type="Swish" version="opset4">
			<input>
				<port id="0" precision="FP16">
					<dim>1</dim>
					<dim>104</dim>
					<dim>24</dim>
					<dim>24</dim>
				</port>
			</input>
			<output>
				<port id="1" precision="FP16" names="/model.5/act/Mul_output_0">
					<dim>1</dim>
					<dim>104</dim>
					<dim>24</dim>
					<dim>24</dim>
				</port>
			</output>
		</layer>
		<layer id="111" name="model.6.cv1.conv.weight" type="Const" version="opset1">
			<data element_type="f16" shape="52, 104, 1, 1" offset="204160" size="10816" />
			<output>
				<port id="0" precision="FP16" names="model.6.cv1.conv.weight">
					<dim>52</dim>
					<dim>104</dim>
					<dim>1</dim>
					<dim>1</dim>
				</port>
			</output>
		</layer>
		<layer id="112" name="/model.6/cv1/conv/Conv/WithoutBiases" type="Convolution" version="opset1">
			<data strides="1, 1" dilations="1, 1" pads_begin="0, 0" pads_end="0, 0" auto_pad="explicit" />
			<input>
				<port id="0" precision="FP16">
					<dim>1</dim>
					<dim>104</dim>
					<dim>24</dim>
					<dim>24</dim>
				</port>
				<port id="1" precision="FP16">
					<dim>52</dim>
					<dim>104</dim>
					<dim>1</dim>
					<dim>1</dim>
				</port>
			</input>
			<output>
				<port id="2" precision="FP16">
					<dim>1</dim>
					<dim>52</dim>
					<dim>24</dim>
					<dim>24</dim>
				</port>
			</output>
		</layer>
		<layer id="113" name="Reshape_973" type="Const" version="opset1">
			<data element_type="f16" shape="1, 52, 1, 1" offset="214976" size="104" />
			<output>
				<port id="0" precision="FP16">
					<dim>1</dim>
					<dim>52</dim>
					<dim>1</dim>
					<dim>1</dim>
				</port>
			</output>
		</layer>
		<layer id="114" name="/model.6/cv1/conv/Conv" type="Add" version="opset1">
			<data auto_broadcast="numpy" />
			<input>
				<port id="0" precision="FP16">
					<dim>1</dim>
					<dim>52</dim>
					<dim>24</dim>
					<dim>24</dim>
				</port>
				<port id="1" precision="FP16">
					<dim>1</dim>
					<dim>52</dim>
					<dim>1</dim>
					<dim>1</dim>
				</port>
			</input>
			<output>
				<port id="2" precision="FP16" names="/model.6/cv1/conv/Conv_output_0">
					<dim>1</dim>
					<dim>52</dim>
					<dim>24</dim>
					<dim>24</dim>
				</port>
			</output>
		</layer>
		<layer id="115" name="/model.6/cv1/act/Mul" type="Swish" version="opset4">
			<input>
				<port id="0" precision="FP16">
					<dim>1</dim>
					<dim>52</dim>
					<dim>24</dim>
					<dim>24</dim>
				</port>
			</input>
			<output>
				<port id="1" precision="FP16" names="/model.6/cv1/act/Mul_output_0">
					<dim>1</dim>
					<dim>52</dim>
					<dim>24</dim>
					<dim>24</dim>
				</port>
			</output>
		</layer>
		<layer id="116" name="model.6.m.0.cv1.conv.weight" type="Const" version="opset1">
			<data element_type="f16" shape="52, 52, 1, 1" offset="215080" size="5408" />
			<output>
				<port id="0" precision="FP16" names="model.6.m.0.cv1.conv.weight">
					<dim>52</dim>
					<dim>52</dim>
					<dim>1</dim>
					<dim>1</dim>
				</port>
			</output>
		</layer>
		<layer id="117" name="/model.6/m/m.0/cv1/conv/Conv/WithoutBiases" type="Convolution" version="opset1">
			<data strides="1, 1" dilations="1, 1" pads_begin="0, 0" pads_end="0, 0" auto_pad="explicit" />
			<input>
				<port id="0" precision="FP16">
					<dim>1</dim>
					<dim>52</dim>
					<dim>24</dim>
					<dim>24</dim>
				</port>
				<port id="1" precision="FP16">
					<dim>52</dim>
					<dim>52</dim>
					<dim>1</dim>
					<dim>1</dim>
				</port>
			</input>
			<output>
				<port id="2" precision="FP16">
					<dim>1</dim>
					<dim>52</dim>
					<dim>24</dim>
					<dim>24</dim>
				</port>
			</output>
		</layer>
		<layer id="118" name="Reshape_1023" type="Const" version="opset1">
			<data element_type="f16" shape="1, 52, 1, 1" offset="220488" size="104" />
			<output>
				<port id="0" precision="FP16">
					<dim>1</dim>
					<dim>52</dim>
					<dim>1</dim>
					<dim>1</dim>
				</port>
			</output>
		</layer>
		<layer id="119" name="/model.6/m/m.0/cv1/conv/Conv" type="Add" version="opset1">
			<data auto_broadcast="numpy" />
			<input>
				<port id="0" precision="FP16">
					<dim>1</dim>
					<dim>52</dim>
					<dim>24</dim>
					<dim>24</dim>
				</port>
				<port id="1" precision="FP16">
					<dim>1</dim>
					<dim>52</dim>
					<dim>1</dim>
					<dim>1</dim>
				</port>
			</input>
			<output>
				<port id="2" precision="FP16" names="/model.6/m/m.0/cv1/conv/Conv_output_0">
					<dim>1</dim>
					<dim>52</dim>
					<dim>24</dim>
					<dim>24</dim>
				</port>
			</output>
		</layer>
		<layer id="120" name="/model.6/m/m.0/cv1/act/Mul" type="Swish" version="opset4">
			<input>
				<port id="0" precision="FP16">
					<dim>1</dim>
					<dim>52</dim>
					<dim>24</dim>
					<dim>24</dim>
				</port>
			</input>
			<output>
				<port id="1" precision="FP16" names="/model.6/m/m.0/cv1/act/Mul_output_0">
					<dim>1</dim>
					<dim>52</dim>
					<dim>24</dim>
					<dim>24</dim>
				</port>
			</output>
		</layer>
		<layer id="121" name="model.6.m.0.cv2.conv.weight" type="Const" version="opset1">
			<data element_type="f16" shape="52, 52, 3, 3" offset="220592" size="48672" />
			<output>
				<port id="0" precision="FP16" names="model.6.m.0.cv2.conv.weight">
					<dim>52</dim>
					<dim>52</dim>
					<dim>3</dim>
					<dim>3</dim>
				</port>
			</output>
		</layer>
		<layer id="122" name="/model.6/m/m.0/cv2/conv/Conv/WithoutBiases" type="Convolution" version="opset1">
			<data strides="1, 1" dilations="1, 1" pads_begin="1, 1" pads_end="1, 1" auto_pad="explicit" />
			<input>
				<port id="0" precision="FP16">
					<dim>1</dim>
					<dim>52</dim>
					<dim>24</dim>
					<dim>24</dim>
				</port>
				<port id="1" precision="FP16">
					<dim>52</dim>
					<dim>52</dim>
					<dim>3</dim>
					<dim>3</dim>
				</port>
			</input>
			<output>
				<port id="2" precision="FP16">
					<dim>1</dim>
					<dim>52</dim>
					<dim>24</dim>
					<dim>24</dim>
				</port>
			</output>
		</layer>
		<layer id="123" name="Reshape_1073" type="Const" version="opset1">
			<data element_type="f16" shape="1, 52, 1, 1" offset="269264" size="104" />
			<output>
				<port id="0" precision="FP16">
					<dim>1</dim>
					<dim>52</dim>
					<dim>1</dim>
					<dim>1</dim>
				</port>
			</output>
		</layer>
		<layer id="124" name="/model.6/m/m.0/cv2/conv/Conv" type="Add" version="opset1">
			<data auto_broadcast="numpy" />
			<input>
				<port id="0" precision="FP16">
					<dim>1</dim>
					<dim>52</dim>
					<dim>24</dim>
					<dim>24</dim>
				</port>
				<port id="1" precision="FP16">
					<dim>1</dim>
					<dim>52</dim>
					<dim>1</dim>
					<dim>1</dim>
				</port>
			</input>
			<output>
				<port id="2" precision="FP16" names="/model.6/m/m.0/cv2/conv/Conv_output_0">
					<dim>1</dim>
					<dim>52</dim>
					<dim>24</dim>
					<dim>24</dim>
				</port>
			</output>
		</layer>
		<layer id="125" name="/model.6/m/m.0/cv2/act/Mul" type="Swish" version="opset4">
			<input>
				<port id="0" precision="FP16">
					<dim>1</dim>
					<dim>52</dim>
					<dim>24</dim>
					<dim>24</dim>
				</port>
			</input>
			<output>
				<port id="1" precision="FP16" names="/model.6/m/m.0/cv2/act/Mul_output_0">
					<dim>1</dim>
					<dim>52</dim>
					<dim>24</dim>
					<dim>24</dim>
				</port>
			</output>
		</layer>
		<layer id="126" name="/model.6/m/m.0/Add" type="Add" version="opset1">
			<data auto_broadcast="numpy" />
			<input>
				<port id="0" precision="FP16">
					<dim>1</dim>
					<dim>52</dim>
					<dim>24</dim>
					<dim>24</dim>
				</port>
				<port id="1" precision="FP16">
					<dim>1</dim>
					<dim>52</dim>
					<dim>24</dim>
					<dim>24</dim>
				</port>
			</input>
			<output>
				<port id="2" precision="FP16" names="/model.6/m/m.0/Add_output_0">
					<dim>1</dim>
					<dim>52</dim>
					<dim>24</dim>
					<dim>24</dim>
				</port>
			</output>
		</layer>
		<layer id="127" name="model.6.m.1.cv1.conv.weight" type="Const" version="opset1">
			<data element_type="f16" shape="52, 52, 1, 1" offset="269368" size="5408" />
			<output>
				<port id="0" precision="FP16" names="model.6.m.1.cv1.conv.weight">
					<dim>52</dim>
					<dim>52</dim>
					<dim>1</dim>
					<dim>1</dim>
				</port>
			</output>
		</layer>
		<layer id="128" name="/model.6/m/m.1/cv1/conv/Conv/WithoutBiases" type="Convolution" version="opset1">
			<data strides="1, 1" dilations="1, 1" pads_begin="0, 0" pads_end="0, 0" auto_pad="explicit" />
			<input>
				<port id="0" precision="FP16">
					<dim>1</dim>
					<dim>52</dim>
					<dim>24</dim>
					<dim>24</dim>
				</port>
				<port id="1" precision="FP16">
					<dim>52</dim>
					<dim>52</dim>
					<dim>1</dim>
					<dim>1</dim>
				</port>
			</input>
			<output>
				<port id="2" precision="FP16">
					<dim>1</dim>
					<dim>52</dim>
					<dim>24</dim>
					<dim>24</dim>
				</port>
			</output>
		</layer>
		<layer id="129" name="Reshape_1124" type="Const" version="opset1">
			<data element_type="f16" shape="1, 52, 1, 1" offset="274776" size="104" />
			<output>
				<port id="0" precision="FP16">
					<dim>1</dim>
					<dim>52</dim>
					<dim>1</dim>
					<dim>1</dim>
				</port>
			</output>
		</layer>
		<layer id="130" name="/model.6/m/m.1/cv1/conv/Conv" type="Add" version="opset1">
			<data auto_broadcast="numpy" />
			<input>
				<port id="0" precision="FP16">
					<dim>1</dim>
					<dim>52</dim>
					<dim>24</dim>
					<dim>24</dim>
				</port>
				<port id="1" precision="FP16">
					<dim>1</dim>
					<dim>52</dim>
					<dim>1</dim>
					<dim>1</dim>
				</port>
			</input>
			<output>
				<port id="2" precision="FP16" names="/model.6/m/m.1/cv1/conv/Conv_output_0">
					<dim>1</dim>
					<dim>52</dim>
					<dim>24</dim>
					<dim>24</dim>
				</port>
			</output>
		</layer>
		<layer id="131" name="/model.6/m/m.1/cv1/act/Mul" type="Swish" version="opset4">
			<input>
				<port id="0" precision="FP16">
					<dim>1</dim>
					<dim>52</dim>
					<dim>24</dim>
					<dim>24</dim>
				</port>
			</input>
			<output>
				<port id="1" precision="FP16" names="/model.6/m/m.1/cv1/act/Mul_output_0">
					<dim>1</dim>
					<dim>52</dim>
					<dim>24</dim>
					<dim>24</dim>
				</port>
			</output>
		</layer>
		<layer id="132" name="model.6.m.1.cv2.conv.weight" type="Const" version="opset1">
			<data element_type="f16" shape="52, 52, 3, 3" offset="274880" size="48672" />
			<output>
				<port id="0" precision="FP16" names="model.6.m.1.cv2.conv.weight">
					<dim>52</dim>
					<dim>52</dim>
					<dim>3</dim>
					<dim>3</dim>
				</port>
			</output>
		</layer>
		<layer id="133" name="/model.6/m/m.1/cv2/conv/Conv/WithoutBiases" type="Convolution" version="opset1">
			<data strides="1, 1" dilations="1, 1" pads_begin="1, 1" pads_end="1, 1" auto_pad="explicit" />
			<input>
				<port id="0" precision="FP16">
					<dim>1</dim>
					<dim>52</dim>
					<dim>24</dim>
					<dim>24</dim>
				</port>
				<port id="1" precision="FP16">
					<dim>52</dim>
					<dim>52</dim>
					<dim>3</dim>
					<dim>3</dim>
				</port>
			</input>
			<output>
				<port id="2" precision="FP16">
					<dim>1</dim>
					<dim>52</dim>
					<dim>24</dim>
					<dim>24</dim>
				</port>
			</output>
		</layer>
		<layer id="134" name="Reshape_1174" type="Const" version="opset1">
			<data element_type="f16" shape="1, 52, 1, 1" offset="323552" size="104" />
			<output>
				<port id="0" precision="FP16">
					<dim>1</dim>
					<dim>52</dim>
					<dim>1</dim>
					<dim>1</dim>
				</port>
			</output>
		</layer>
		<layer id="135" name="/model.6/m/m.1/cv2/conv/Conv" type="Add" version="opset1">
			<data auto_broadcast="numpy" />
			<input>
				<port id="0" precision="FP16">
					<dim>1</dim>
					<dim>52</dim>
					<dim>24</dim>
					<dim>24</dim>
				</port>
				<port id="1" precision="FP16">
					<dim>1</dim>
					<dim>52</dim>
					<dim>1</dim>
					<dim>1</dim>
				</port>
			</input>
			<output>
				<port id="2" precision="FP16" names="/model.6/m/m.1/cv2/conv/Conv_output_0">
					<dim>1</dim>
					<dim>52</dim>
					<dim>24</dim>
					<dim>24</dim>
				</port>
			</output>
		</layer>
		<layer id="136" name="/model.6/m/m.1/cv2/act/Mul" type="Swish" version="opset4">
			<input>
				<port id="0" precision="FP16">
					<dim>1</dim>
					<dim>52</dim>
					<dim>24</dim>
					<dim>24</dim>
				</port>
			</input>
			<output>
				<port id="1" precision="FP16" names="/model.6/m/m.1/cv2/act/Mul_output_0">
					<dim>1</dim>
					<dim>52</dim>
					<dim>24</dim>
					<dim>24</dim>
				</port>
			</output>
		</layer>
		<layer id="137" name="/model.6/m/m.1/Add" type="Add" version="opset1">
			<data auto_broadcast="numpy" />
			<input>
				<port id="0" precision="FP16">
					<dim>1</dim>
					<dim>52</dim>
					<dim>24</dim>
					<dim>24</dim>
				</port>
				<port id="1" precision="FP16">
					<dim>1</dim>
					<dim>52</dim>
					<dim>24</dim>
					<dim>24</dim>
				</port>
			</input>
			<output>
				<port id="2" precision="FP16" names="/model.6/m/m.1/Add_output_0">
					<dim>1</dim>
					<dim>52</dim>
					<dim>24</dim>
					<dim>24</dim>
				</port>
			</output>
		</layer>
		<layer id="138" name="model.6.cv2.conv.weight" type="Const" version="opset1">
			<data element_type="f16" shape="52, 104, 1, 1" offset="323656" size="10816" />
			<output>
				<port id="0" precision="FP16" names="model.6.cv2.conv.weight">
					<dim>52</dim>
					<dim>104</dim>
					<dim>1</dim>
					<dim>1</dim>
				</port>
			</output>
		</layer>
		<layer id="139" name="/model.6/cv2/conv/Conv/WithoutBiases" type="Convolution" version="opset1">
			<data strides="1, 1" dilations="1, 1" pads_begin="0, 0" pads_end="0, 0" auto_pad="explicit" />
			<input>
				<port id="0" precision="FP16">
					<dim>1</dim>
					<dim>104</dim>
					<dim>24</dim>
					<dim>24</dim>
				</port>
				<port id="1" precision="FP16">
					<dim>52</dim>
					<dim>104</dim>
					<dim>1</dim>
					<dim>1</dim>
				</port>
			</input>
			<output>
				<port id="2" precision="FP16">
					<dim>1</dim>
					<dim>52</dim>
					<dim>24</dim>
					<dim>24</dim>
				</port>
			</output>
		</layer>
		<layer id="140" name="Reshape_1225" type="Const" version="opset1">
			<data element_type="f16" shape="1, 52, 1, 1" offset="334472" size="104" />
			<output>
				<port id="0" precision="FP16">
					<dim>1</dim>
					<dim>52</dim>
					<dim>1</dim>
					<dim>1</dim>
				</port>
			</output>
		</layer>
		<layer id="141" name="/model.6/cv2/conv/Conv" type="Add" version="opset1">
			<data auto_broadcast="numpy" />
			<input>
				<port id="0" precision="FP16">
					<dim>1</dim>
					<dim>52</dim>
					<dim>24</dim>
					<dim>24</dim>
				</port>
				<port id="1" precision="FP16">
					<dim>1</dim>
					<dim>52</dim>
					<dim>1</dim>
					<dim>1</dim>
				</port>
			</input>
			<output>
				<port id="2" precision="FP16" names="/model.6/cv2/conv/Conv_output_0">
					<dim>1</dim>
					<dim>52</dim>
					<dim>24</dim>
					<dim>24</dim>
				</port>
			</output>
		</layer>
		<layer id="142" name="/model.6/cv2/act/Mul" type="Swish" version="opset4">
			<input>
				<port id="0" precision="FP16">
					<dim>1</dim>
					<dim>52</dim>
					<dim>24</dim>
					<dim>24</dim>
				</port>
			</input>
			<output>
				<port id="1" precision="FP16" names="/model.6/cv2/act/Mul_output_0">
					<dim>1</dim>
					<dim>52</dim>
					<dim>24</dim>
					<dim>24</dim>
				</port>
			</output>
		</layer>
		<layer id="143" name="/model.6/Concat" type="Concat" version="opset1">
			<data axis="1" />
			<input>
				<port id="0" precision="FP16">
					<dim>1</dim>
					<dim>52</dim>
					<dim>24</dim>
					<dim>24</dim>
				</port>
				<port id="1" precision="FP16">
					<dim>1</dim>
					<dim>52</dim>
					<dim>24</dim>
					<dim>24</dim>
				</port>
			</input>
			<output>
				<port id="2" precision="FP16" names="/model.6/Concat_output_0">
					<dim>1</dim>
					<dim>104</dim>
					<dim>24</dim>
					<dim>24</dim>
				</port>
			</output>
		</layer>
		<layer id="144" name="model.6.cv3.conv.weight" type="Const" version="opset1">
			<data element_type="f16" shape="104, 104, 1, 1" offset="334576" size="21632" />
			<output>
				<port id="0" precision="FP16" names="model.6.cv3.conv.weight">
					<dim>104</dim>
					<dim>104</dim>
					<dim>1</dim>
					<dim>1</dim>
				</port>
			</output>
		</layer>
		<layer id="145" name="/model.6/cv3/conv/Conv/WithoutBiases" type="Convolution" version="opset1">
			<data strides="1, 1" dilations="1, 1" pads_begin="0, 0" pads_end="0, 0" auto_pad="explicit" />
			<input>
				<port id="0" precision="FP16">
					<dim>1</dim>
					<dim>104</dim>
					<dim>24</dim>
					<dim>24</dim>
				</port>
				<port id="1" precision="FP16">
					<dim>104</dim>
					<dim>104</dim>
					<dim>1</dim>
					<dim>1</dim>
				</port>
			</input>
			<output>
				<port id="2" precision="FP16">
					<dim>1</dim>
					<dim>104</dim>
					<dim>24</dim>
					<dim>24</dim>
				</port>
			</output>
		</layer>
		<layer id="146" name="Reshape_1276" type="Const" version="opset1">
			<data element_type="f16" shape="1, 104, 1, 1" offset="356208" size="208" />
			<output>
				<port id="0" precision="FP16">
					<dim>1</dim>
					<dim>104</dim>
					<dim>1</dim>
					<dim>1</dim>
				</port>
			</output>
		</layer>
		<layer id="147" name="/model.6/cv3/conv/Conv" type="Add" version="opset1">
			<data auto_broadcast="numpy" />
			<input>
				<port id="0" precision="FP16">
					<dim>1</dim>
					<dim>104</dim>
					<dim>24</dim>
					<dim>24</dim>
				</port>
				<port id="1" precision="FP16">
					<dim>1</dim>
					<dim>104</dim>
					<dim>1</dim>
					<dim>1</dim>
				</port>
			</input>
			<output>
				<port id="2" precision="FP16" names="/model.6/cv3/conv/Conv_output_0">
					<dim>1</dim>
					<dim>104</dim>
					<dim>24</dim>
					<dim>24</dim>
				</port>
			</output>
		</layer>
		<layer id="148" name="/model.6/cv3/act/Mul" type="Swish" version="opset4">
			<input>
				<port id="0" precision="FP16">
					<dim>1</dim>
					<dim>104</dim>
					<dim>24</dim>
					<dim>24</dim>
				</port>
			</input>
			<output>
				<port id="1" precision="FP16" names="/model.6/cv3/act/Mul_output_0">
					<dim>1</dim>
					<dim>104</dim>
					<dim>24</dim>
					<dim>24</dim>
				</port>
			</output>
		</layer>
		<layer id="149" name="model.7.conv.weight" type="Const" version="opset1">
			<data element_type="f16" shape="200, 104, 3, 3" offset="356416" size="374400" />
			<output>
				<port id="0" precision="FP16" names="model.7.conv.weight">
					<dim>200</dim>
					<dim>104</dim>
					<dim>3</dim>
					<dim>3</dim>
				</port>
			</output>
		</layer>
		<layer id="150" name="/model.7/conv/Conv/WithoutBiases" type="Convolution" version="opset1">
			<data strides="2, 2" dilations="1, 1" pads_begin="1, 1" pads_end="1, 1" auto_pad="explicit" />
			<input>
				<port id="0" precision="FP16">
					<dim>1</dim>
					<dim>104</dim>
					<dim>24</dim>
					<dim>24</dim>
				</port>
				<port id="1" precision="FP16">
					<dim>200</dim>
					<dim>104</dim>
					<dim>3</dim>
					<dim>3</dim>
				</port>
			</input>
			<output>
				<port id="2" precision="FP16">
					<dim>1</dim>
					<dim>200</dim>
					<dim>12</dim>
					<dim>12</dim>
				</port>
			</output>
		</layer>
		<layer id="151" name="Reshape_1326" type="Const" version="opset1">
			<data element_type="f16" shape="1, 200, 1, 1" offset="730816" size="400" />
			<output>
				<port id="0" precision="FP16">
					<dim>1</dim>
					<dim>200</dim>
					<dim>1</dim>
					<dim>1</dim>
				</port>
			</output>
		</layer>
		<layer id="152" name="/model.7/conv/Conv" type="Add" version="opset1">
			<data auto_broadcast="numpy" />
			<input>
				<port id="0" precision="FP16">
					<dim>1</dim>
					<dim>200</dim>
					<dim>12</dim>
					<dim>12</dim>
				</port>
				<port id="1" precision="FP16">
					<dim>1</dim>
					<dim>200</dim>
					<dim>1</dim>
					<dim>1</dim>
				</port>
			</input>
			<output>
				<port id="2" precision="FP16" names="/model.7/conv/Conv_output_0">
					<dim>1</dim>
					<dim>200</dim>
					<dim>12</dim>
					<dim>12</dim>
				</port>
			</output>
		</layer>
		<layer id="153" name="/model.7/act/Mul" type="Swish" version="opset4">
			<input>
				<port id="0" precision="FP16">
					<dim>1</dim>
					<dim>200</dim>
					<dim>12</dim>
					<dim>12</dim>
				</port>
			</input>
			<output>
				<port id="1" precision="FP16" names="/model.7/act/Mul_output_0">
					<dim>1</dim>
					<dim>200</dim>
					<dim>12</dim>
					<dim>12</dim>
				</port>
			</output>
		</layer>
		<layer id="154" name="model.8.cv1.conv.weight" type="Const" version="opset1">
			<data element_type="f16" shape="100, 200, 1, 1" offset="731216" size="40000" />
			<output>
				<port id="0" precision="FP16" names="model.8.cv1.conv.weight">
					<dim>100</dim>
					<dim>200</dim>
					<dim>1</dim>
					<dim>1</dim>
				</port>
			</output>
		</layer>
		<layer id="155" name="/model.8/cv1/conv/Conv/WithoutBiases" type="Convolution" version="opset1">
			<data strides="1, 1" dilations="1, 1" pads_begin="0, 0" pads_end="0, 0" auto_pad="explicit" />
			<input>
				<port id="0" precision="FP16">
					<dim>1</dim>
					<dim>200</dim>
					<dim>12</dim>
					<dim>12</dim>
				</port>
				<port id="1" precision="FP16">
					<dim>100</dim>
					<dim>200</dim>
					<dim>1</dim>
					<dim>1</dim>
				</port>
			</input>
			<output>
				<port id="2" precision="FP16">
					<dim>1</dim>
					<dim>100</dim>
					<dim>12</dim>
					<dim>12</dim>
				</port>
			</output>
		</layer>
		<layer id="156" name="Reshape_1376" type="Const" version="opset1">
			<data element_type="f16" shape="1, 100, 1, 1" offset="771216" size="200" />
			<output>
				<port id="0" precision="FP16">
					<dim>1</dim>
					<dim>100</dim>
					<dim>1</dim>
					<dim>1</dim>
				</port>
			</output>
		</layer>
		<layer id="157" name="/model.8/cv1/conv/Conv" type="Add" version="opset1">
			<data auto_broadcast="numpy" />
			<input>
				<port id="0" precision="FP16">
					<dim>1</dim>
					<dim>100</dim>
					<dim>12</dim>
					<dim>12</dim>
				</port>
				<port id="1" precision="FP16">
					<dim>1</dim>
					<dim>100</dim>
					<dim>1</dim>
					<dim>1</dim>
				</port>
			</input>
			<output>
				<port id="2" precision="FP16" names="/model.8/cv1/conv/Conv_output_0">
					<dim>1</dim>
					<dim>100</dim>
					<dim>12</dim>
					<dim>12</dim>
				</port>
			</output>
		</layer>
		<layer id="158" name="/model.8/cv1/act/Mul" type="Swish" version="opset4">
			<input>
				<port id="0" precision="FP16">
					<dim>1</dim>
					<dim>100</dim>
					<dim>12</dim>
					<dim>12</dim>
				</port>
			</input>
			<output>
				<port id="1" precision="FP16" names="/model.8/cv1/act/Mul_output_0">
					<dim>1</dim>
					<dim>100</dim>
					<dim>12</dim>
					<dim>12</dim>
				</port>
			</output>
		</layer>
		<layer id="159" name="/model.8/m.0/MaxPool" type="MaxPool" version="opset8">
			<data strides="1, 1" dilations="1, 1" pads_begin="2, 2" pads_end="2, 2" kernel="5, 5" rounding_type="floor" auto_pad="explicit" index_element_type="i64" axis="0" />
			<input>
				<port id="0" precision="FP16">
					<dim>1</dim>
					<dim>100</dim>
					<dim>12</dim>
					<dim>12</dim>
				</port>
			</input>
			<output>
				<port id="1" precision="FP16" names="/model.8/m.0/MaxPool_output_0">
					<dim>1</dim>
					<dim>100</dim>
					<dim>12</dim>
					<dim>12</dim>
				</port>
				<port id="2" precision="I64">
					<dim>1</dim>
					<dim>100</dim>
					<dim>12</dim>
					<dim>12</dim>
				</port>
			</output>
		</layer>
		<layer id="160" name="/model.8/m.1/MaxPool" type="MaxPool" version="opset8">
			<data strides="1, 1" dilations="1, 1" pads_begin="4, 4" pads_end="4, 4" kernel="9, 9" rounding_type="floor" auto_pad="explicit" index_element_type="i64" axis="0" />
			<input>
				<port id="0" precision="FP16">
					<dim>1</dim>
					<dim>100</dim>
					<dim>12</dim>
					<dim>12</dim>
				</port>
			</input>
			<output>
				<port id="1" precision="FP16" names="/model.8/m.1/MaxPool_output_0">
					<dim>1</dim>
					<dim>100</dim>
					<dim>12</dim>
					<dim>12</dim>
				</port>
				<port id="2" precision="I64">
					<dim>1</dim>
					<dim>100</dim>
					<dim>12</dim>
					<dim>12</dim>
				</port>
			</output>
		</layer>
		<layer id="161" name="/model.8/m.2/MaxPool" type="MaxPool" version="opset8">
			<data strides="1, 1" dilations="1, 1" pads_begin="6, 6" pads_end="6, 6" kernel="13, 13" rounding_type="floor" auto_pad="explicit" index_element_type="i64" axis="0" />
			<input>
				<port id="0" precision="FP16">
					<dim>1</dim>
					<dim>100</dim>
					<dim>12</dim>
					<dim>12</dim>
				</port>
			</input>
			<output>
				<port id="1" precision="FP16" names="/model.8/m.2/MaxPool_output_0">
					<dim>1</dim>
					<dim>100</dim>
					<dim>12</dim>
					<dim>12</dim>
				</port>
				<port id="2" precision="I64">
					<dim>1</dim>
					<dim>100</dim>
					<dim>12</dim>
					<dim>12</dim>
				</port>
			</output>
		</layer>
		<layer id="162" name="/model.8/Concat" type="Concat" version="opset1">
			<data axis="1" />
			<input>
				<port id="0" precision="FP16">
					<dim>1</dim>
					<dim>100</dim>
					<dim>12</dim>
					<dim>12</dim>
				</port>
				<port id="1" precision="FP16">
					<dim>1</dim>
					<dim>100</dim>
					<dim>12</dim>
					<dim>12</dim>
				</port>
				<port id="2" precision="FP16">
					<dim>1</dim>
					<dim>100</dim>
					<dim>12</dim>
					<dim>12</dim>
				</port>
				<port id="3" precision="FP16">
					<dim>1</dim>
					<dim>100</dim>
					<dim>12</dim>
					<dim>12</dim>
				</port>
			</input>
			<output>
				<port id="4" precision="FP16" names="/model.8/Concat_output_0">
					<dim>1</dim>
					<dim>400</dim>
					<dim>12</dim>
					<dim>12</dim>
				</port>
			</output>
		</layer>
		<layer id="163" name="model.8.cv2.conv.weight" type="Const" version="opset1">
			<data element_type="f16" shape="200, 400, 1, 1" offset="771416" size="160000" />
			<output>
				<port id="0" precision="FP16" names="model.8.cv2.conv.weight">
					<dim>200</dim>
					<dim>400</dim>
					<dim>1</dim>
					<dim>1</dim>
				</port>
			</output>
		</layer>
		<layer id="164" name="/model.8/cv2/conv/Conv/WithoutBiases" type="Convolution" version="opset1">
			<data strides="1, 1" dilations="1, 1" pads_begin="0, 0" pads_end="0, 0" auto_pad="explicit" />
			<input>
				<port id="0" precision="FP16">
					<dim>1</dim>
					<dim>400</dim>
					<dim>12</dim>
					<dim>12</dim>
				</port>
				<port id="1" precision="FP16">
					<dim>200</dim>
					<dim>400</dim>
					<dim>1</dim>
					<dim>1</dim>
				</port>
			</input>
			<output>
				<port id="2" precision="FP16">
					<dim>1</dim>
					<dim>200</dim>
					<dim>12</dim>
					<dim>12</dim>
				</port>
			</output>
		</layer>
		<layer id="165" name="Reshape_1430" type="Const" version="opset1">
			<data element_type="f16" shape="1, 200, 1, 1" offset="931416" size="400" />
			<output>
				<port id="0" precision="FP16">
					<dim>1</dim>
					<dim>200</dim>
					<dim>1</dim>
					<dim>1</dim>
				</port>
			</output>
		</layer>
		<layer id="166" name="/model.8/cv2/conv/Conv" type="Add" version="opset1">
			<data auto_broadcast="numpy" />
			<input>
				<port id="0" precision="FP16">
					<dim>1</dim>
					<dim>200</dim>
					<dim>12</dim>
					<dim>12</dim>
				</port>
				<port id="1" precision="FP16">
					<dim>1</dim>
					<dim>200</dim>
					<dim>1</dim>
					<dim>1</dim>
				</port>
			</input>
			<output>
				<port id="2" precision="FP16" names="/model.8/cv2/conv/Conv_output_0">
					<dim>1</dim>
					<dim>200</dim>
					<dim>12</dim>
					<dim>12</dim>
				</port>
			</output>
		</layer>
		<layer id="167" name="/model.8/cv2/act/Mul" type="Swish" version="opset4">
			<input>
				<port id="0" precision="FP16">
					<dim>1</dim>
					<dim>200</dim>
					<dim>12</dim>
					<dim>12</dim>
				</port>
			</input>
			<output>
				<port id="1" precision="FP16" names="/model.8/cv2/act/Mul_output_0">
					<dim>1</dim>
					<dim>200</dim>
					<dim>12</dim>
					<dim>12</dim>
				</port>
			</output>
		</layer>
		<layer id="168" name="model.9.cv1.conv.weight" type="Const" version="opset1">
			<data element_type="f16" shape="100, 200, 1, 1" offset="931816" size="40000" />
			<output>
				<port id="0" precision="FP16" names="model.9.cv1.conv.weight">
					<dim>100</dim>
					<dim>200</dim>
					<dim>1</dim>
					<dim>1</dim>
				</port>
			</output>
		</layer>
		<layer id="169" name="/model.9/cv1/conv/Conv/WithoutBiases" type="Convolution" version="opset1">
			<data strides="1, 1" dilations="1, 1" pads_begin="0, 0" pads_end="0, 0" auto_pad="explicit" />
			<input>
				<port id="0" precision="FP16">
					<dim>1</dim>
					<dim>200</dim>
					<dim>12</dim>
					<dim>12</dim>
				</port>
				<port id="1" precision="FP16">
					<dim>100</dim>
					<dim>200</dim>
					<dim>1</dim>
					<dim>1</dim>
				</port>
			</input>
			<output>
				<port id="2" precision="FP16">
					<dim>1</dim>
					<dim>100</dim>
					<dim>12</dim>
					<dim>12</dim>
				</port>
			</output>
		</layer>
		<layer id="170" name="Reshape_1480" type="Const" version="opset1">
			<data element_type="f16" shape="1, 100, 1, 1" offset="971816" size="200" />
			<output>
				<port id="0" precision="FP16">
					<dim>1</dim>
					<dim>100</dim>
					<dim>1</dim>
					<dim>1</dim>
				</port>
			</output>
		</layer>
		<layer id="171" name="/model.9/cv1/conv/Conv" type="Add" version="opset1">
			<data auto_broadcast="numpy" />
			<input>
				<port id="0" precision="FP16">
					<dim>1</dim>
					<dim>100</dim>
					<dim>12</dim>
					<dim>12</dim>
				</port>
				<port id="1" precision="FP16">
					<dim>1</dim>
					<dim>100</dim>
					<dim>1</dim>
					<dim>1</dim>
				</port>
			</input>
			<output>
				<port id="2" precision="FP16" names="/model.9/cv1/conv/Conv_output_0">
					<dim>1</dim>
					<dim>100</dim>
					<dim>12</dim>
					<dim>12</dim>
				</port>
			</output>
		</layer>
		<layer id="172" name="/model.9/cv1/act/Mul" type="Swish" version="opset4">
			<input>
				<port id="0" precision="FP16">
					<dim>1</dim>
					<dim>100</dim>
					<dim>12</dim>
					<dim>12</dim>
				</port>
			</input>
			<output>
				<port id="1" precision="FP16" names="/model.9/cv1/act/Mul_output_0">
					<dim>1</dim>
					<dim>100</dim>
					<dim>12</dim>
					<dim>12</dim>
				</port>
			</output>
		</layer>
		<layer id="173" name="model.9.m.0.cv1.conv.weight" type="Const" version="opset1">
			<data element_type="f16" shape="100, 100, 1, 1" offset="972016" size="20000" />
			<output>
				<port id="0" precision="FP16" names="model.9.m.0.cv1.conv.weight">
					<dim>100</dim>
					<dim>100</dim>
					<dim>1</dim>
					<dim>1</dim>
				</port>
			</output>
		</layer>
		<layer id="174" name="/model.9/m/m.0/cv1/conv/Conv/WithoutBiases" type="Convolution" version="opset1">
			<data strides="1, 1" dilations="1, 1" pads_begin="0, 0" pads_end="0, 0" auto_pad="explicit" />
			<input>
				<port id="0" precision="FP16">
					<dim>1</dim>
					<dim>100</dim>
					<dim>12</dim>
					<dim>12</dim>
				</port>
				<port id="1" precision="FP16">
					<dim>100</dim>
					<dim>100</dim>
					<dim>1</dim>
					<dim>1</dim>
				</port>
			</input>
			<output>
				<port id="2" precision="FP16">
					<dim>1</dim>
					<dim>100</dim>
					<dim>12</dim>
					<dim>12</dim>
				</port>
			</output>
		</layer>
		<layer id="175" name="Reshape_1530" type="Const" version="opset1">
			<data element_type="f16" shape="1, 100, 1, 1" offset="992016" size="200" />
			<output>
				<port id="0" precision="FP16">
					<dim>1</dim>
					<dim>100</dim>
					<dim>1</dim>
					<dim>1</dim>
				</port>
			</output>
		</layer>
		<layer id="176" name="/model.9/m/m.0/cv1/conv/Conv" type="Add" version="opset1">
			<data auto_broadcast="numpy" />
			<input>
				<port id="0" precision="FP16">
					<dim>1</dim>
					<dim>100</dim>
					<dim>12</dim>
					<dim>12</dim>
				</port>
				<port id="1" precision="FP16">
					<dim>1</dim>
					<dim>100</dim>
					<dim>1</dim>
					<dim>1</dim>
				</port>
			</input>
			<output>
				<port id="2" precision="FP16" names="/model.9/m/m.0/cv1/conv/Conv_output_0">
					<dim>1</dim>
					<dim>100</dim>
					<dim>12</dim>
					<dim>12</dim>
				</port>
			</output>
		</layer>
		<layer id="177" name="/model.9/m/m.0/cv1/act/Mul" type="Swish" version="opset4">
			<input>
				<port id="0" precision="FP16">
					<dim>1</dim>
					<dim>100</dim>
					<dim>12</dim>
					<dim>12</dim>
				</port>
			</input>
			<output>
				<port id="1" precision="FP16" names="/model.9/m/m.0/cv1/act/Mul_output_0">
					<dim>1</dim>
					<dim>100</dim>
					<dim>12</dim>
					<dim>12</dim>
				</port>
			</output>
		</layer>
		<layer id="178" name="model.9.m.0.cv2.conv.weight" type="Const" version="opset1">
			<data element_type="f16" shape="100, 100, 3, 3" offset="992216" size="180000" />
			<output>
				<port id="0" precision="FP16" names="model.9.m.0.cv2.conv.weight">
					<dim>100</dim>
					<dim>100</dim>
					<dim>3</dim>
					<dim>3</dim>
				</port>
			</output>
		</layer>
		<layer id="179" name="/model.9/m/m.0/cv2/conv/Conv/WithoutBiases" type="Convolution" version="opset1">
			<data strides="1, 1" dilations="1, 1" pads_begin="1, 1" pads_end="1, 1" auto_pad="explicit" />
			<input>
				<port id="0" precision="FP16">
					<dim>1</dim>
					<dim>100</dim>
					<dim>12</dim>
					<dim>12</dim>
				</port>
				<port id="1" precision="FP16">
					<dim>100</dim>
					<dim>100</dim>
					<dim>3</dim>
					<dim>3</dim>
				</port>
			</input>
			<output>
				<port id="2" precision="FP16">
					<dim>1</dim>
					<dim>100</dim>
					<dim>12</dim>
					<dim>12</dim>
				</port>
			</output>
		</layer>
		<layer id="180" name="Reshape_1580" type="Const" version="opset1">
			<data element_type="f16" shape="1, 100, 1, 1" offset="1172216" size="200" />
			<output>
				<port id="0" precision="FP16">
					<dim>1</dim>
					<dim>100</dim>
					<dim>1</dim>
					<dim>1</dim>
				</port>
			</output>
		</layer>
		<layer id="181" name="/model.9/m/m.0/cv2/conv/Conv" type="Add" version="opset1">
			<data auto_broadcast="numpy" />
			<input>
				<port id="0" precision="FP16">
					<dim>1</dim>
					<dim>100</dim>
					<dim>12</dim>
					<dim>12</dim>
				</port>
				<port id="1" precision="FP16">
					<dim>1</dim>
					<dim>100</dim>
					<dim>1</dim>
					<dim>1</dim>
				</port>
			</input>
			<output>
				<port id="2" precision="FP16" names="/model.9/m/m.0/cv2/conv/Conv_output_0">
					<dim>1</dim>
					<dim>100</dim>
					<dim>12</dim>
					<dim>12</dim>
				</port>
			</output>
		</layer>
		<layer id="182" name="/model.9/m/m.0/cv2/act/Mul" type="Swish" version="opset4">
			<input>
				<port id="0" precision="FP16">
					<dim>1</dim>
					<dim>100</dim>
					<dim>12</dim>
					<dim>12</dim>
				</port>
			</input>
			<output>
				<port id="1" precision="FP16" names="/model.9/m/m.0/cv2/act/Mul_output_0">
					<dim>1</dim>
					<dim>100</dim>
					<dim>12</dim>
					<dim>12</dim>
				</port>
			</output>
		</layer>
		<layer id="183" name="model.9.cv2.conv.weight" type="Const" version="opset1">
			<data element_type="f16" shape="100, 200, 1, 1" offset="1172416" size="40000" />
			<output>
				<port id="0" precision="FP16" names="model.9.cv2.conv.weight">
					<dim>100</dim>
					<dim>200</dim>
					<dim>1</dim>
					<dim>1</dim>
				</port>
			</output>
		</layer>
		<layer id="184" name="/model.9/cv2/conv/Conv/WithoutBiases" type="Convolution" version="opset1">
			<data strides="1, 1" dilations="1, 1" pads_begin="0, 0" pads_end="0, 0" auto_pad="explicit" />
			<input>
				<port id="0" precision="FP16">
					<dim>1</dim>
					<dim>200</dim>
					<dim>12</dim>
					<dim>12</dim>
				</port>
				<port id="1" precision="FP16">
					<dim>100</dim>
					<dim>200</dim>
					<dim>1</dim>
					<dim>1</dim>
				</port>
			</input>
			<output>
				<port id="2" precision="FP16">
					<dim>1</dim>
					<dim>100</dim>
					<dim>12</dim>
					<dim>12</dim>
				</port>
			</output>
		</layer>
		<layer id="185" name="Reshape_1630" type="Const" version="opset1">
			<data element_type="f16" shape="1, 100, 1, 1" offset="1212416" size="200" />
			<output>
				<port id="0" precision="FP16">
					<dim>1</dim>
					<dim>100</dim>
					<dim>1</dim>
					<dim>1</dim>
				</port>
			</output>
		</layer>
		<layer id="186" name="/model.9/cv2/conv/Conv" type="Add" version="opset1">
			<data auto_broadcast="numpy" />
			<input>
				<port id="0" precision="FP16">
					<dim>1</dim>
					<dim>100</dim>
					<dim>12</dim>
					<dim>12</dim>
				</port>
				<port id="1" precision="FP16">
					<dim>1</dim>
					<dim>100</dim>
					<dim>1</dim>
					<dim>1</dim>
				</port>
			</input>
			<output>
				<port id="2" precision="FP16" names="/model.9/cv2/conv/Conv_output_0">
					<dim>1</dim>
					<dim>100</dim>
					<dim>12</dim>
					<dim>12</dim>
				</port>
			</output>
		</layer>
		<layer id="187" name="/model.9/cv2/act/Mul" type="Swish" version="opset4">
			<input>
				<port id="0" precision="FP16">
					<dim>1</dim>
					<dim>100</dim>
					<dim>12</dim>
					<dim>12</dim>
				</port>
			</input>
			<output>
				<port id="1" precision="FP16" names="/model.9/cv2/act/Mul_output_0">
					<dim>1</dim>
					<dim>100</dim>
					<dim>12</dim>
					<dim>12</dim>
				</port>
			</output>
		</layer>
		<layer id="188" name="/model.9/Concat" type="Concat" version="opset1">
			<data axis="1" />
			<input>
				<port id="0" precision="FP16">
					<dim>1</dim>
					<dim>100</dim>
					<dim>12</dim>
					<dim>12</dim>
				</port>
				<port id="1" precision="FP16">
					<dim>1</dim>
					<dim>100</dim>
					<dim>12</dim>
					<dim>12</dim>
				</port>
			</input>
			<output>
				<port id="2" precision="FP16" names="/model.9/Concat_output_0">
					<dim>1</dim>
					<dim>200</dim>
					<dim>12</dim>
					<dim>12</dim>
				</port>
			</output>
		</layer>
		<layer id="189" name="model.9.cv3.conv.weight" type="Const" version="opset1">
			<data element_type="f16" shape="200, 200, 1, 1" offset="1212616" size="80000" />
			<output>
				<port id="0" precision="FP16" names="model.9.cv3.conv.weight">
					<dim>200</dim>
					<dim>200</dim>
					<dim>1</dim>
					<dim>1</dim>
				</port>
			</output>
		</layer>
		<layer id="190" name="/model.9/cv3/conv/Conv/WithoutBiases" type="Convolution" version="opset1">
			<data strides="1, 1" dilations="1, 1" pads_begin="0, 0" pads_end="0, 0" auto_pad="explicit" />
			<input>
				<port id="0" precision="FP16">
					<dim>1</dim>
					<dim>200</dim>
					<dim>12</dim>
					<dim>12</dim>
				</port>
				<port id="1" precision="FP16">
					<dim>200</dim>
					<dim>200</dim>
					<dim>1</dim>
					<dim>1</dim>
				</port>
			</input>
			<output>
				<port id="2" precision="FP16">
					<dim>1</dim>
					<dim>200</dim>
					<dim>12</dim>
					<dim>12</dim>
				</port>
			</output>
		</layer>
		<layer id="191" name="Reshape_1681" type="Const" version="opset1">
			<data element_type="f16" shape="1, 200, 1, 1" offset="1292616" size="400" />
			<output>
				<port id="0" precision="FP16">
					<dim>1</dim>
					<dim>200</dim>
					<dim>1</dim>
					<dim>1</dim>
				</port>
			</output>
		</layer>
		<layer id="192" name="/model.9/cv3/conv/Conv" type="Add" version="opset1">
			<data auto_broadcast="numpy" />
			<input>
				<port id="0" precision="FP16">
					<dim>1</dim>
					<dim>200</dim>
					<dim>12</dim>
					<dim>12</dim>
				</port>
				<port id="1" precision="FP16">
					<dim>1</dim>
					<dim>200</dim>
					<dim>1</dim>
					<dim>1</dim>
				</port>
			</input>
			<output>
				<port id="2" precision="FP16" names="/model.9/cv3/conv/Conv_output_0">
					<dim>1</dim>
					<dim>200</dim>
					<dim>12</dim>
					<dim>12</dim>
				</port>
			</output>
		</layer>
		<layer id="193" name="/model.9/cv3/act/Mul" type="Swish" version="opset4">
			<input>
				<port id="0" precision="FP16">
					<dim>1</dim>
					<dim>200</dim>
					<dim>12</dim>
					<dim>12</dim>
				</port>
			</input>
			<output>
				<port id="1" precision="FP16" names="/model.9/cv3/act/Mul_output_0">
					<dim>1</dim>
					<dim>200</dim>
					<dim>12</dim>
					<dim>12</dim>
				</port>
			</output>
		</layer>
		<layer id="194" name="model.10.conv.weight" type="Const" version="opset1">
			<data element_type="f16" shape="104, 200, 1, 1" offset="1293016" size="41600" />
			<output>
				<port id="0" precision="FP16" names="model.10.conv.weight">
					<dim>104</dim>
					<dim>200</dim>
					<dim>1</dim>
					<dim>1</dim>
				</port>
			</output>
		</layer>
		<layer id="195" name="/model.10/conv/Conv/WithoutBiases" type="Convolution" version="opset1">
			<data strides="1, 1" dilations="1, 1" pads_begin="0, 0" pads_end="0, 0" auto_pad="explicit" />
			<input>
				<port id="0" precision="FP16">
					<dim>1</dim>
					<dim>200</dim>
					<dim>12</dim>
					<dim>12</dim>
				</port>
				<port id="1" precision="FP16">
					<dim>104</dim>
					<dim>200</dim>
					<dim>1</dim>
					<dim>1</dim>
				</port>
			</input>
			<output>
				<port id="2" precision="FP16">
					<dim>1</dim>
					<dim>104</dim>
					<dim>12</dim>
					<dim>12</dim>
				</port>
			</output>
		</layer>
		<layer id="196" name="Reshape_1731" type="Const" version="opset1">
			<data element_type="f16" shape="1, 104, 1, 1" offset="1334616" size="208" />
			<output>
				<port id="0" precision="FP16">
					<dim>1</dim>
					<dim>104</dim>
					<dim>1</dim>
					<dim>1</dim>
				</port>
			</output>
		</layer>
		<layer id="197" name="/model.10/conv/Conv" type="Add" version="opset1">
			<data auto_broadcast="numpy" />
			<input>
				<port id="0" precision="FP16">
					<dim>1</dim>
					<dim>104</dim>
					<dim>12</dim>
					<dim>12</dim>
				</port>
				<port id="1" precision="FP16">
					<dim>1</dim>
					<dim>104</dim>
					<dim>1</dim>
					<dim>1</dim>
				</port>
			</input>
			<output>
				<port id="2" precision="FP16" names="/model.10/conv/Conv_output_0">
					<dim>1</dim>
					<dim>104</dim>
					<dim>12</dim>
					<dim>12</dim>
				</port>
			</output>
		</layer>
		<layer id="198" name="/model.10/act/Mul" type="Swish" version="opset4">
			<input>
				<port id="0" precision="FP16">
					<dim>1</dim>
					<dim>104</dim>
					<dim>12</dim>
					<dim>12</dim>
				</port>
			</input>
			<output>
				<port id="1" precision="FP16" names="/model.10/act/Mul_output_0">
					<dim>1</dim>
					<dim>104</dim>
					<dim>12</dim>
					<dim>12</dim>
				</port>
			</output>
		</layer>
		<layer id="199" name="ShapeOf_1763" type="ShapeOf" version="opset3">
			<data output_type="i64" />
			<input>
				<port id="0" precision="FP16">
					<dim>1</dim>
					<dim>104</dim>
					<dim>12</dim>
					<dim>12</dim>
				</port>
			</input>
			<output>
				<port id="1" precision="I64">
					<dim>4</dim>
				</port>
			</output>
		</layer>
		<layer id="200" name="Convert_1764" type="Convert" version="opset1">
			<data destination_type="f32" />
			<input>
				<port id="0" precision="I64">
					<dim>4</dim>
				</port>
			</input>
			<output>
				<port id="1" precision="FP32">
					<dim>4</dim>
				</port>
			</output>
		</layer>
		<layer id="201" name="/model.11/Constant" type="Const" version="opset1">
			<data element_type="f32" shape="4" offset="1334824" size="16" />
			<output>
				<port id="0" precision="FP32" names="/model.11/Constant_output_0">
					<dim>4</dim>
				</port>
			</output>
		</layer>
		<layer id="202" name="Multiply_1765" type="Multiply" version="opset1">
			<data auto_broadcast="numpy" />
			<input>
				<port id="0" precision="FP32">
					<dim>4</dim>
				</port>
				<port id="1" precision="FP32">
					<dim>4</dim>
				</port>
			</input>
			<output>
				<port id="2" precision="FP32">
					<dim>4</dim>
				</port>
			</output>
		</layer>
		<layer id="203" name="Convert_1766" type="Convert" version="opset1">
			<data destination_type="i64" />
			<input>
				<port id="0" precision="FP32">
					<dim>4</dim>
				</port>
			</input>
			<output>
				<port id="1" precision="I64">
					<dim>4</dim>
				</port>
			</output>
		</layer>
		<layer id="204" name="/model.11/Resize" type="Interpolate" version="opset4">
			<data mode="nearest" shape_calculation_mode="scales" coordinate_transformation_mode="asymmetric" nearest_mode="floor" antialias="false" pads_begin="0, 0, 0, 0" pads_end="0, 0, 0, 0" cube_coeff="-0.75" />
			<input>
				<port id="0" precision="FP16">
					<dim>1</dim>
					<dim>104</dim>
					<dim>12</dim>
					<dim>12</dim>
				</port>
				<port id="1" precision="I64">
					<dim>4</dim>
				</port>
				<port id="2" precision="FP32">
					<dim>4</dim>
				</port>
			</input>
			<output>
				<port id="3" precision="FP16" names="/model.11/Resize_output_0">
					<dim>1</dim>
					<dim>104</dim>
					<dim>24</dim>
					<dim>24</dim>
				</port>
			</output>
		</layer>
		<layer id="205" name="/model.12/Concat" type="Concat" version="opset1">
			<data axis="1" />
			<input>
				<port id="0" precision="FP16">
					<dim>1</dim>
					<dim>104</dim>
					<dim>24</dim>
					<dim>24</dim>
				</port>
				<port id="1" precision="FP16">
					<dim>1</dim>
					<dim>104</dim>
					<dim>24</dim>
					<dim>24</dim>
				</port>
			</input>
			<output>
				<port id="2" precision="FP16" names="/model.12/Concat_output_0">
					<dim>1</dim>
					<dim>208</dim>
					<dim>24</dim>
					<dim>24</dim>
				</port>
			</output>
		</layer>
		<layer id="206" name="model.13.cv1.conv.weight" type="Const" version="opset1">
			<data element_type="f16" shape="52, 208, 1, 1" offset="1334840" size="21632" />
			<output>
				<port id="0" precision="FP16" names="model.13.cv1.conv.weight">
					<dim>52</dim>
					<dim>208</dim>
					<dim>1</dim>
					<dim>1</dim>
				</port>
			</output>
		</layer>
		<layer id="207" name="/model.13/cv1/conv/Conv/WithoutBiases" type="Convolution" version="opset1">
			<data strides="1, 1" dilations="1, 1" pads_begin="0, 0" pads_end="0, 0" auto_pad="explicit" />
			<input>
				<port id="0" precision="FP16">
					<dim>1</dim>
					<dim>208</dim>
					<dim>24</dim>
					<dim>24</dim>
				</port>
				<port id="1" precision="FP16">
					<dim>52</dim>
					<dim>208</dim>
					<dim>1</dim>
					<dim>1</dim>
				</port>
			</input>
			<output>
				<port id="2" precision="FP16">
					<dim>1</dim>
					<dim>52</dim>
					<dim>24</dim>
					<dim>24</dim>
				</port>
			</output>
		</layer>
		<layer id="208" name="Reshape_1789" type="Const" version="opset1">
			<data element_type="f16" shape="1, 52, 1, 1" offset="1356472" size="104" />
			<output>
				<port id="0" precision="FP16">
					<dim>1</dim>
					<dim>52</dim>
					<dim>1</dim>
					<dim>1</dim>
				</port>
			</output>
		</layer>
		<layer id="209" name="/model.13/cv1/conv/Conv" type="Add" version="opset1">
			<data auto_broadcast="numpy" />
			<input>
				<port id="0" precision="FP16">
					<dim>1</dim>
					<dim>52</dim>
					<dim>24</dim>
					<dim>24</dim>
				</port>
				<port id="1" precision="FP16">
					<dim>1</dim>
					<dim>52</dim>
					<dim>1</dim>
					<dim>1</dim>
				</port>
			</input>
			<output>
				<port id="2" precision="FP16" names="/model.13/cv1/conv/Conv_output_0">
					<dim>1</dim>
					<dim>52</dim>
					<dim>24</dim>
					<dim>24</dim>
				</port>
			</output>
		</layer>
		<layer id="210" name="/model.13/cv1/act/Mul" type="Swish" version="opset4">
			<input>
				<port id="0" precision="FP16">
					<dim>1</dim>
					<dim>52</dim>
					<dim>24</dim>
					<dim>24</dim>
				</port>
			</input>
			<output>
				<port id="1" precision="FP16" names="/model.13/cv1/act/Mul_output_0">
					<dim>1</dim>
					<dim>52</dim>
					<dim>24</dim>
					<dim>24</dim>
				</port>
			</output>
		</layer>
		<layer id="211" name="model.13.m.0.cv1.conv.weight" type="Const" version="opset1">
			<data element_type="f16" shape="52, 52, 1, 1" offset="1356576" size="5408" />
			<output>
				<port id="0" precision="FP16" names="model.13.m.0.cv1.conv.weight">
					<dim>52</dim>
					<dim>52</dim>
					<dim>1</dim>
					<dim>1</dim>
				</port>
			</output>
		</layer>
		<layer id="212" name="/model.13/m/m.0/cv1/conv/Conv/WithoutBiases" type="Convolution" version="opset1">
			<data strides="1, 1" dilations="1, 1" pads_begin="0, 0" pads_end="0, 0" auto_pad="explicit" />
			<input>
				<port id="0" precision="FP16">
					<dim>1</dim>
					<dim>52</dim>
					<dim>24</dim>
					<dim>24</dim>
				</port>
				<port id="1" precision="FP16">
					<dim>52</dim>
					<dim>52</dim>
					<dim>1</dim>
					<dim>1</dim>
				</port>
			</input>
			<output>
				<port id="2" precision="FP16">
					<dim>1</dim>
					<dim>52</dim>
					<dim>24</dim>
					<dim>24</dim>
				</port>
			</output>
		</layer>
		<layer id="213" name="Reshape_1839" type="Const" version="opset1">
			<data element_type="f16" shape="1, 52, 1, 1" offset="1361984" size="104" />
			<output>
				<port id="0" precision="FP16">
					<dim>1</dim>
					<dim>52</dim>
					<dim>1</dim>
					<dim>1</dim>
				</port>
			</output>
		</layer>
		<layer id="214" name="/model.13/m/m.0/cv1/conv/Conv" type="Add" version="opset1">
			<data auto_broadcast="numpy" />
			<input>
				<port id="0" precision="FP16">
					<dim>1</dim>
					<dim>52</dim>
					<dim>24</dim>
					<dim>24</dim>
				</port>
				<port id="1" precision="FP16">
					<dim>1</dim>
					<dim>52</dim>
					<dim>1</dim>
					<dim>1</dim>
				</port>
			</input>
			<output>
				<port id="2" precision="FP16" names="/model.13/m/m.0/cv1/conv/Conv_output_0">
					<dim>1</dim>
					<dim>52</dim>
					<dim>24</dim>
					<dim>24</dim>
				</port>
			</output>
		</layer>
		<layer id="215" name="/model.13/m/m.0/cv1/act/Mul" type="Swish" version="opset4">
			<input>
				<port id="0" precision="FP16">
					<dim>1</dim>
					<dim>52</dim>
					<dim>24</dim>
					<dim>24</dim>
				</port>
			</input>
			<output>
				<port id="1" precision="FP16" names="/model.13/m/m.0/cv1/act/Mul_output_0">
					<dim>1</dim>
					<dim>52</dim>
					<dim>24</dim>
					<dim>24</dim>
				</port>
			</output>
		</layer>
		<layer id="216" name="model.13.m.0.cv2.conv.weight" type="Const" version="opset1">
			<data element_type="f16" shape="52, 52, 3, 3" offset="1362088" size="48672" />
			<output>
				<port id="0" precision="FP16" names="model.13.m.0.cv2.conv.weight">
					<dim>52</dim>
					<dim>52</dim>
					<dim>3</dim>
					<dim>3</dim>
				</port>
			</output>
		</layer>
		<layer id="217" name="/model.13/m/m.0/cv2/conv/Conv/WithoutBiases" type="Convolution" version="opset1">
			<data strides="1, 1" dilations="1, 1" pads_begin="1, 1" pads_end="1, 1" auto_pad="explicit" />
			<input>
				<port id="0" precision="FP16">
					<dim>1</dim>
					<dim>52</dim>
					<dim>24</dim>
					<dim>24</dim>
				</port>
				<port id="1" precision="FP16">
					<dim>52</dim>
					<dim>52</dim>
					<dim>3</dim>
					<dim>3</dim>
				</port>
			</input>
			<output>
				<port id="2" precision="FP16">
					<dim>1</dim>
					<dim>52</dim>
					<dim>24</dim>
					<dim>24</dim>
				</port>
			</output>
		</layer>
		<layer id="218" name="Reshape_1889" type="Const" version="opset1">
			<data element_type="f16" shape="1, 52, 1, 1" offset="1410760" size="104" />
			<output>
				<port id="0" precision="FP16">
					<dim>1</dim>
					<dim>52</dim>
					<dim>1</dim>
					<dim>1</dim>
				</port>
			</output>
		</layer>
		<layer id="219" name="/model.13/m/m.0/cv2/conv/Conv" type="Add" version="opset1">
			<data auto_broadcast="numpy" />
			<input>
				<port id="0" precision="FP16">
					<dim>1</dim>
					<dim>52</dim>
					<dim>24</dim>
					<dim>24</dim>
				</port>
				<port id="1" precision="FP16">
					<dim>1</dim>
					<dim>52</dim>
					<dim>1</dim>
					<dim>1</dim>
				</port>
			</input>
			<output>
				<port id="2" precision="FP16" names="/model.13/m/m.0/cv2/conv/Conv_output_0">
					<dim>1</dim>
					<dim>52</dim>
					<dim>24</dim>
					<dim>24</dim>
				</port>
			</output>
		</layer>
		<layer id="220" name="/model.13/m/m.0/cv2/act/Mul" type="Swish" version="opset4">
			<input>
				<port id="0" precision="FP16">
					<dim>1</dim>
					<dim>52</dim>
					<dim>24</dim>
					<dim>24</dim>
				</port>
			</input>
			<output>
				<port id="1" precision="FP16" names="/model.13/m/m.0/cv2/act/Mul_output_0">
					<dim>1</dim>
					<dim>52</dim>
					<dim>24</dim>
					<dim>24</dim>
				</port>
			</output>
		</layer>
		<layer id="221" name="model.13.cv2.conv.weight" type="Const" version="opset1">
			<data element_type="f16" shape="52, 208, 1, 1" offset="1410864" size="21632" />
			<output>
				<port id="0" precision="FP16" names="model.13.cv2.conv.weight">
					<dim>52</dim>
					<dim>208</dim>
					<dim>1</dim>
					<dim>1</dim>
				</port>
			</output>
		</layer>
		<layer id="222" name="/model.13/cv2/conv/Conv/WithoutBiases" type="Convolution" version="opset1">
			<data strides="1, 1" dilations="1, 1" pads_begin="0, 0" pads_end="0, 0" auto_pad="explicit" />
			<input>
				<port id="0" precision="FP16">
					<dim>1</dim>
					<dim>208</dim>
					<dim>24</dim>
					<dim>24</dim>
				</port>
				<port id="1" precision="FP16">
					<dim>52</dim>
					<dim>208</dim>
					<dim>1</dim>
					<dim>1</dim>
				</port>
			</input>
			<output>
				<port id="2" precision="FP16">
					<dim>1</dim>
					<dim>52</dim>
					<dim>24</dim>
					<dim>24</dim>
				</port>
			</output>
		</layer>
		<layer id="223" name="Reshape_1939" type="Const" version="opset1">
			<data element_type="f16" shape="1, 52, 1, 1" offset="1432496" size="104" />
			<output>
				<port id="0" precision="FP16">
					<dim>1</dim>
					<dim>52</dim>
					<dim>1</dim>
					<dim>1</dim>
				</port>
			</output>
		</layer>
		<layer id="224" name="/model.13/cv2/conv/Conv" type="Add" version="opset1">
			<data auto_broadcast="numpy" />
			<input>
				<port id="0" precision="FP16">
					<dim>1</dim>
					<dim>52</dim>
					<dim>24</dim>
					<dim>24</dim>
				</port>
				<port id="1" precision="FP16">
					<dim>1</dim>
					<dim>52</dim>
					<dim>1</dim>
					<dim>1</dim>
				</port>
			</input>
			<output>
				<port id="2" precision="FP16" names="/model.13/cv2/conv/Conv_output_0">
					<dim>1</dim>
					<dim>52</dim>
					<dim>24</dim>
					<dim>24</dim>
				</port>
			</output>
		</layer>
		<layer id="225" name="/model.13/cv2/act/Mul" type="Swish" version="opset4">
			<input>
				<port id="0" precision="FP16">
					<dim>1</dim>
					<dim>52</dim>
					<dim>24</dim>
					<dim>24</dim>
				</port>
			</input>
			<output>
				<port id="1" precision="FP16" names="/model.13/cv2/act/Mul_output_0">
					<dim>1</dim>
					<dim>52</dim>
					<dim>24</dim>
					<dim>24</dim>
				</port>
			</output>
		</layer>
		<layer id="226" name="/model.13/Concat" type="Concat" version="opset1">
			<data axis="1" />
			<input>
				<port id="0" precision="FP16">
					<dim>1</dim>
					<dim>52</dim>
					<dim>24</dim>
					<dim>24</dim>
				</port>
				<port id="1" precision="FP16">
					<dim>1</dim>
					<dim>52</dim>
					<dim>24</dim>
					<dim>24</dim>
				</port>
			</input>
			<output>
				<port id="2" precision="FP16" names="/model.13/Concat_output_0">
					<dim>1</dim>
					<dim>104</dim>
					<dim>24</dim>
					<dim>24</dim>
				</port>
			</output>
		</layer>
		<layer id="227" name="model.13.cv3.conv.weight" type="Const" version="opset1">
			<data element_type="f16" shape="104, 104, 1, 1" offset="1432600" size="21632" />
			<output>
				<port id="0" precision="FP16" names="model.13.cv3.conv.weight">
					<dim>104</dim>
					<dim>104</dim>
					<dim>1</dim>
					<dim>1</dim>
				</port>
			</output>
		</layer>
		<layer id="228" name="/model.13/cv3/conv/Conv/WithoutBiases" type="Convolution" version="opset1">
			<data strides="1, 1" dilations="1, 1" pads_begin="0, 0" pads_end="0, 0" auto_pad="explicit" />
			<input>
				<port id="0" precision="FP16">
					<dim>1</dim>
					<dim>104</dim>
					<dim>24</dim>
					<dim>24</dim>
				</port>
				<port id="1" precision="FP16">
					<dim>104</dim>
					<dim>104</dim>
					<dim>1</dim>
					<dim>1</dim>
				</port>
			</input>
			<output>
				<port id="2" precision="FP16">
					<dim>1</dim>
					<dim>104</dim>
					<dim>24</dim>
					<dim>24</dim>
				</port>
			</output>
		</layer>
		<layer id="229" name="Reshape_1990" type="Const" version="opset1">
			<data element_type="f16" shape="1, 104, 1, 1" offset="1454232" size="208" />
			<output>
				<port id="0" precision="FP16">
					<dim>1</dim>
					<dim>104</dim>
					<dim>1</dim>
					<dim>1</dim>
				</port>
			</output>
		</layer>
		<layer id="230" name="/model.13/cv3/conv/Conv" type="Add" version="opset1">
			<data auto_broadcast="numpy" />
			<input>
				<port id="0" precision="FP16">
					<dim>1</dim>
					<dim>104</dim>
					<dim>24</dim>
					<dim>24</dim>
				</port>
				<port id="1" precision="FP16">
					<dim>1</dim>
					<dim>104</dim>
					<dim>1</dim>
					<dim>1</dim>
				</port>
			</input>
			<output>
				<port id="2" precision="FP16" names="/model.13/cv3/conv/Conv_output_0">
					<dim>1</dim>
					<dim>104</dim>
					<dim>24</dim>
					<dim>24</dim>
				</port>
			</output>
		</layer>
		<layer id="231" name="/model.13/cv3/act/Mul" type="Swish" version="opset4">
			<input>
				<port id="0" precision="FP16">
					<dim>1</dim>
					<dim>104</dim>
					<dim>24</dim>
					<dim>24</dim>
				</port>
			</input>
			<output>
				<port id="1" precision="FP16" names="/model.13/cv3/act/Mul_output_0">
					<dim>1</dim>
					<dim>104</dim>
					<dim>24</dim>
					<dim>24</dim>
				</port>
			</output>
		</layer>
		<layer id="232" name="model.14.conv.weight" type="Const" version="opset1">
			<data element_type="f16" shape="56, 104, 1, 1" offset="1454440" size="11648" />
			<output>
				<port id="0" precision="FP16" names="model.14.conv.weight">
					<dim>56</dim>
					<dim>104</dim>
					<dim>1</dim>
					<dim>1</dim>
				</port>
			</output>
		</layer>
		<layer id="233" name="/model.14/conv/Conv/WithoutBiases" type="Convolution" version="opset1">
			<data strides="1, 1" dilations="1, 1" pads_begin="0, 0" pads_end="0, 0" auto_pad="explicit" />
			<input>
				<port id="0" precision="FP16">
					<dim>1</dim>
					<dim>104</dim>
					<dim>24</dim>
					<dim>24</dim>
				</port>
				<port id="1" precision="FP16">
					<dim>56</dim>
					<dim>104</dim>
					<dim>1</dim>
					<dim>1</dim>
				</port>
			</input>
			<output>
				<port id="2" precision="FP16">
					<dim>1</dim>
					<dim>56</dim>
					<dim>24</dim>
					<dim>24</dim>
				</port>
			</output>
		</layer>
		<layer id="234" name="Reshape_2040" type="Const" version="opset1">
			<data element_type="f16" shape="1, 56, 1, 1" offset="1466088" size="112" />
			<output>
				<port id="0" precision="FP16">
					<dim>1</dim>
					<dim>56</dim>
					<dim>1</dim>
					<dim>1</dim>
				</port>
			</output>
		</layer>
		<layer id="235" name="/model.14/conv/Conv" type="Add" version="opset1">
			<data auto_broadcast="numpy" />
			<input>
				<port id="0" precision="FP16">
					<dim>1</dim>
					<dim>56</dim>
					<dim>24</dim>
					<dim>24</dim>
				</port>
				<port id="1" precision="FP16">
					<dim>1</dim>
					<dim>56</dim>
					<dim>1</dim>
					<dim>1</dim>
				</port>
			</input>
			<output>
				<port id="2" precision="FP16" names="/model.14/conv/Conv_output_0">
					<dim>1</dim>
					<dim>56</dim>
					<dim>24</dim>
					<dim>24</dim>
				</port>
			</output>
		</layer>
		<layer id="236" name="/model.14/act/Mul" type="Swish" version="opset4">
			<input>
				<port id="0" precision="FP16">
					<dim>1</dim>
					<dim>56</dim>
					<dim>24</dim>
					<dim>24</dim>
				</port>
			</input>
			<output>
				<port id="1" precision="FP16" names="/model.14/act/Mul_output_0">
					<dim>1</dim>
					<dim>56</dim>
					<dim>24</dim>
					<dim>24</dim>
				</port>
			</output>
		</layer>
		<layer id="237" name="ShapeOf_2072" type="ShapeOf" version="opset3">
			<data output_type="i64" />
			<input>
				<port id="0" precision="FP16">
					<dim>1</dim>
					<dim>56</dim>
					<dim>24</dim>
					<dim>24</dim>
				</port>
			</input>
			<output>
				<port id="1" precision="I64">
					<dim>4</dim>
				</port>
			</output>
		</layer>
		<layer id="238" name="Convert_2073" type="Convert" version="opset1">
			<data destination_type="f32" />
			<input>
				<port id="0" precision="I64">
					<dim>4</dim>
				</port>
			</input>
			<output>
				<port id="1" precision="FP32">
					<dim>4</dim>
				</port>
			</output>
		</layer>
		<layer id="239" name="/model.15/Constant" type="Const" version="opset1">
			<data element_type="f32" shape="4" offset="1334824" size="16" />
			<output>
				<port id="0" precision="FP32" names="/model.15/Constant_output_0">
					<dim>4</dim>
				</port>
			</output>
		</layer>
		<layer id="240" name="Multiply_2074" type="Multiply" version="opset1">
			<data auto_broadcast="numpy" />
			<input>
				<port id="0" precision="FP32">
					<dim>4</dim>
				</port>
				<port id="1" precision="FP32">
					<dim>4</dim>
				</port>
			</input>
			<output>
				<port id="2" precision="FP32">
					<dim>4</dim>
				</port>
			</output>
		</layer>
		<layer id="241" name="Convert_2075" type="Convert" version="opset1">
			<data destination_type="i64" />
			<input>
				<port id="0" precision="FP32">
					<dim>4</dim>
				</port>
			</input>
			<output>
				<port id="1" precision="I64">
					<dim>4</dim>
				</port>
			</output>
		</layer>
		<layer id="242" name="/model.15/Resize" type="Interpolate" version="opset4">
			<data mode="nearest" shape_calculation_mode="scales" coordinate_transformation_mode="asymmetric" nearest_mode="floor" antialias="false" pads_begin="0, 0, 0, 0" pads_end="0, 0, 0, 0" cube_coeff="-0.75" />
			<input>
				<port id="0" precision="FP16">
					<dim>1</dim>
					<dim>56</dim>
					<dim>24</dim>
					<dim>24</dim>
				</port>
				<port id="1" precision="I64">
					<dim>4</dim>
				</port>
				<port id="2" precision="FP32">
					<dim>4</dim>
				</port>
			</input>
			<output>
				<port id="3" precision="FP16" names="/model.15/Resize_output_0">
					<dim>1</dim>
					<dim>56</dim>
					<dim>48</dim>
					<dim>48</dim>
				</port>
			</output>
		</layer>
		<layer id="243" name="/model.16/Concat" type="Concat" version="opset1">
			<data axis="1" />
			<input>
				<port id="0" precision="FP16">
					<dim>1</dim>
					<dim>56</dim>
					<dim>48</dim>
					<dim>48</dim>
				</port>
				<port id="1" precision="FP16">
					<dim>1</dim>
					<dim>56</dim>
					<dim>48</dim>
					<dim>48</dim>
				</port>
			</input>
			<output>
				<port id="2" precision="FP16" names="/model.16/Concat_output_0">
					<dim>1</dim>
					<dim>112</dim>
					<dim>48</dim>
					<dim>48</dim>
				</port>
			</output>
		</layer>
		<layer id="244" name="model.17.cv1.conv.weight" type="Const" version="opset1">
			<data element_type="f16" shape="28, 112, 1, 1" offset="1466200" size="6272" />
			<output>
				<port id="0" precision="FP16" names="model.17.cv1.conv.weight">
					<dim>28</dim>
					<dim>112</dim>
					<dim>1</dim>
					<dim>1</dim>
				</port>
			</output>
		</layer>
		<layer id="245" name="/model.17/cv1/conv/Conv/WithoutBiases" type="Convolution" version="opset1">
			<data strides="1, 1" dilations="1, 1" pads_begin="0, 0" pads_end="0, 0" auto_pad="explicit" />
			<input>
				<port id="0" precision="FP16">
					<dim>1</dim>
					<dim>112</dim>
					<dim>48</dim>
					<dim>48</dim>
				</port>
				<port id="1" precision="FP16">
					<dim>28</dim>
					<dim>112</dim>
					<dim>1</dim>
					<dim>1</dim>
				</port>
			</input>
			<output>
				<port id="2" precision="FP16">
					<dim>1</dim>
					<dim>28</dim>
					<dim>48</dim>
					<dim>48</dim>
				</port>
			</output>
		</layer>
		<layer id="246" name="Reshape_2098" type="Const" version="opset1">
			<data element_type="f16" shape="1, 28, 1, 1" offset="1472472" size="56" />
			<output>
				<port id="0" precision="FP16">
					<dim>1</dim>
					<dim>28</dim>
					<dim>1</dim>
					<dim>1</dim>
				</port>
			</output>
		</layer>
		<layer id="247" name="/model.17/cv1/conv/Conv" type="Add" version="opset1">
			<data auto_broadcast="numpy" />
			<input>
				<port id="0" precision="FP16">
					<dim>1</dim>
					<dim>28</dim>
					<dim>48</dim>
					<dim>48</dim>
				</port>
				<port id="1" precision="FP16">
					<dim>1</dim>
					<dim>28</dim>
					<dim>1</dim>
					<dim>1</dim>
				</port>
			</input>
			<output>
				<port id="2" precision="FP16" names="/model.17/cv1/conv/Conv_output_0">
					<dim>1</dim>
					<dim>28</dim>
					<dim>48</dim>
					<dim>48</dim>
				</port>
			</output>
		</layer>
		<layer id="248" name="/model.17/cv1/act/Mul" type="Swish" version="opset4">
			<input>
				<port id="0" precision="FP16">
					<dim>1</dim>
					<dim>28</dim>
					<dim>48</dim>
					<dim>48</dim>
				</port>
			</input>
			<output>
				<port id="1" precision="FP16" names="/model.17/cv1/act/Mul_output_0">
					<dim>1</dim>
					<dim>28</dim>
					<dim>48</dim>
					<dim>48</dim>
				</port>
			</output>
		</layer>
		<layer id="249" name="model.17.m.0.cv1.conv.weight" type="Const" version="opset1">
			<data element_type="f16" shape="28, 28, 1, 1" offset="1472528" size="1568" />
			<output>
				<port id="0" precision="FP16" names="model.17.m.0.cv1.conv.weight">
					<dim>28</dim>
					<dim>28</dim>
					<dim>1</dim>
					<dim>1</dim>
				</port>
			</output>
		</layer>
		<layer id="250" name="/model.17/m/m.0/cv1/conv/Conv/WithoutBiases" type="Convolution" version="opset1">
			<data strides="1, 1" dilations="1, 1" pads_begin="0, 0" pads_end="0, 0" auto_pad="explicit" />
			<input>
				<port id="0" precision="FP16">
					<dim>1</dim>
					<dim>28</dim>
					<dim>48</dim>
					<dim>48</dim>
				</port>
				<port id="1" precision="FP16">
					<dim>28</dim>
					<dim>28</dim>
					<dim>1</dim>
					<dim>1</dim>
				</port>
			</input>
			<output>
				<port id="2" precision="FP16">
					<dim>1</dim>
					<dim>28</dim>
					<dim>48</dim>
					<dim>48</dim>
				</port>
			</output>
		</layer>
		<layer id="251" name="Reshape_2148" type="Const" version="opset1">
			<data element_type="f16" shape="1, 28, 1, 1" offset="1474096" size="56" />
			<output>
				<port id="0" precision="FP16">
					<dim>1</dim>
					<dim>28</dim>
					<dim>1</dim>
					<dim>1</dim>
				</port>
			</output>
		</layer>
		<layer id="252" name="/model.17/m/m.0/cv1/conv/Conv" type="Add" version="opset1">
			<data auto_broadcast="numpy" />
			<input>
				<port id="0" precision="FP16">
					<dim>1</dim>
					<dim>28</dim>
					<dim>48</dim>
					<dim>48</dim>
				</port>
				<port id="1" precision="FP16">
					<dim>1</dim>
					<dim>28</dim>
					<dim>1</dim>
					<dim>1</dim>
				</port>
			</input>
			<output>
				<port id="2" precision="FP16" names="/model.17/m/m.0/cv1/conv/Conv_output_0">
					<dim>1</dim>
					<dim>28</dim>
					<dim>48</dim>
					<dim>48</dim>
				</port>
			</output>
		</layer>
		<layer id="253" name="/model.17/m/m.0/cv1/act/Mul" type="Swish" version="opset4">
			<input>
				<port id="0" precision="FP16">
					<dim>1</dim>
					<dim>28</dim>
					<dim>48</dim>
					<dim>48</dim>
				</port>
			</input>
			<output>
				<port id="1" precision="FP16" names="/model.17/m/m.0/cv1/act/Mul_output_0">
					<dim>1</dim>
					<dim>28</dim>
					<dim>48</dim>
					<dim>48</dim>
				</port>
			</output>
		</layer>
		<layer id="254" name="model.17.m.0.cv2.conv.weight" type="Const" version="opset1">
			<data element_type="f16" shape="28, 28, 3, 3" offset="1474152" size="14112" />
			<output>
				<port id="0" precision="FP16" names="model.17.m.0.cv2.conv.weight">
					<dim>28</dim>
					<dim>28</dim>
					<dim>3</dim>
					<dim>3</dim>
				</port>
			</output>
		</layer>
		<layer id="255" name="/model.17/m/m.0/cv2/conv/Conv/WithoutBiases" type="Convolution" version="opset1">
			<data strides="1, 1" dilations="1, 1" pads_begin="1, 1" pads_end="1, 1" auto_pad="explicit" />
			<input>
				<port id="0" precision="FP16">
					<dim>1</dim>
					<dim>28</dim>
					<dim>48</dim>
					<dim>48</dim>
				</port>
				<port id="1" precision="FP16">
					<dim>28</dim>
					<dim>28</dim>
					<dim>3</dim>
					<dim>3</dim>
				</port>
			</input>
			<output>
				<port id="2" precision="FP16">
					<dim>1</dim>
					<dim>28</dim>
					<dim>48</dim>
					<dim>48</dim>
				</port>
			</output>
		</layer>
		<layer id="256" name="Reshape_2198" type="Const" version="opset1">
			<data element_type="f16" shape="1, 28, 1, 1" offset="1488264" size="56" />
			<output>
				<port id="0" precision="FP16">
					<dim>1</dim>
					<dim>28</dim>
					<dim>1</dim>
					<dim>1</dim>
				</port>
			</output>
		</layer>
		<layer id="257" name="/model.17/m/m.0/cv2/conv/Conv" type="Add" version="opset1">
			<data auto_broadcast="numpy" />
			<input>
				<port id="0" precision="FP16">
					<dim>1</dim>
					<dim>28</dim>
					<dim>48</dim>
					<dim>48</dim>
				</port>
				<port id="1" precision="FP16">
					<dim>1</dim>
					<dim>28</dim>
					<dim>1</dim>
					<dim>1</dim>
				</port>
			</input>
			<output>
				<port id="2" precision="FP16" names="/model.17/m/m.0/cv2/conv/Conv_output_0">
					<dim>1</dim>
					<dim>28</dim>
					<dim>48</dim>
					<dim>48</dim>
				</port>
			</output>
		</layer>
		<layer id="258" name="/model.17/m/m.0/cv2/act/Mul" type="Swish" version="opset4">
			<input>
				<port id="0" precision="FP16">
					<dim>1</dim>
					<dim>28</dim>
					<dim>48</dim>
					<dim>48</dim>
				</port>
			</input>
			<output>
				<port id="1" precision="FP16" names="/model.17/m/m.0/cv2/act/Mul_output_0">
					<dim>1</dim>
					<dim>28</dim>
					<dim>48</dim>
					<dim>48</dim>
				</port>
			</output>
		</layer>
		<layer id="259" name="model.17.cv2.conv.weight" type="Const" version="opset1">
			<data element_type="f16" shape="28, 112, 1, 1" offset="1488320" size="6272" />
			<output>
				<port id="0" precision="FP16" names="model.17.cv2.conv.weight">
					<dim>28</dim>
					<dim>112</dim>
					<dim>1</dim>
					<dim>1</dim>
				</port>
			</output>
		</layer>
		<layer id="260" name="/model.17/cv2/conv/Conv/WithoutBiases" type="Convolution" version="opset1">
			<data strides="1, 1" dilations="1, 1" pads_begin="0, 0" pads_end="0, 0" auto_pad="explicit" />
			<input>
				<port id="0" precision="FP16">
					<dim>1</dim>
					<dim>112</dim>
					<dim>48</dim>
					<dim>48</dim>
				</port>
				<port id="1" precision="FP16">
					<dim>28</dim>
					<dim>112</dim>
					<dim>1</dim>
					<dim>1</dim>
				</port>
			</input>
			<output>
				<port id="2" precision="FP16">
					<dim>1</dim>
					<dim>28</dim>
					<dim>48</dim>
					<dim>48</dim>
				</port>
			</output>
		</layer>
		<layer id="261" name="Reshape_2248" type="Const" version="opset1">
			<data element_type="f16" shape="1, 28, 1, 1" offset="1494592" size="56" />
			<output>
				<port id="0" precision="FP16">
					<dim>1</dim>
					<dim>28</dim>
					<dim>1</dim>
					<dim>1</dim>
				</port>
			</output>
		</layer>
		<layer id="262" name="/model.17/cv2/conv/Conv" type="Add" version="opset1">
			<data auto_broadcast="numpy" />
			<input>
				<port id="0" precision="FP16">
					<dim>1</dim>
					<dim>28</dim>
					<dim>48</dim>
					<dim>48</dim>
				</port>
				<port id="1" precision="FP16">
					<dim>1</dim>
					<dim>28</dim>
					<dim>1</dim>
					<dim>1</dim>
				</port>
			</input>
			<output>
				<port id="2" precision="FP16" names="/model.17/cv2/conv/Conv_output_0">
					<dim>1</dim>
					<dim>28</dim>
					<dim>48</dim>
					<dim>48</dim>
				</port>
			</output>
		</layer>
		<layer id="263" name="/model.17/cv2/act/Mul" type="Swish" version="opset4">
			<input>
				<port id="0" precision="FP16">
					<dim>1</dim>
					<dim>28</dim>
					<dim>48</dim>
					<dim>48</dim>
				</port>
			</input>
			<output>
				<port id="1" precision="FP16" names="/model.17/cv2/act/Mul_output_0">
					<dim>1</dim>
					<dim>28</dim>
					<dim>48</dim>
					<dim>48</dim>
				</port>
			</output>
		</layer>
		<layer id="264" name="/model.17/Concat" type="Concat" version="opset1">
			<data axis="1" />
			<input>
				<port id="0" precision="FP16">
					<dim>1</dim>
					<dim>28</dim>
					<dim>48</dim>
					<dim>48</dim>
				</port>
				<port id="1" precision="FP16">
					<dim>1</dim>
					<dim>28</dim>
					<dim>48</dim>
					<dim>48</dim>
				</port>
			</input>
			<output>
				<port id="2" precision="FP16" names="/model.17/Concat_output_0">
					<dim>1</dim>
					<dim>56</dim>
					<dim>48</dim>
					<dim>48</dim>
				</port>
			</output>
		</layer>
		<layer id="265" name="model.17.cv3.conv.weight" type="Const" version="opset1">
			<data element_type="f16" shape="56, 56, 1, 1" offset="1494648" size="6272" />
			<output>
				<port id="0" precision="FP16" names="model.17.cv3.conv.weight">
					<dim>56</dim>
					<dim>56</dim>
					<dim>1</dim>
					<dim>1</dim>
				</port>
			</output>
		</layer>
		<layer id="266" name="/model.17/cv3/conv/Conv/WithoutBiases" type="Convolution" version="opset1">
			<data strides="1, 1" dilations="1, 1" pads_begin="0, 0" pads_end="0, 0" auto_pad="explicit" />
			<input>
				<port id="0" precision="FP16">
					<dim>1</dim>
					<dim>56</dim>
					<dim>48</dim>
					<dim>48</dim>
				</port>
				<port id="1" precision="FP16">
					<dim>56</dim>
					<dim>56</dim>
					<dim>1</dim>
					<dim>1</dim>
				</port>
			</input>
			<output>
				<port id="2" precision="FP16">
					<dim>1</dim>
					<dim>56</dim>
					<dim>48</dim>
					<dim>48</dim>
				</port>
			</output>
		</layer>
		<layer id="267" name="Reshape_2299" type="Const" version="opset1">
			<data element_type="f16" shape="1, 56, 1, 1" offset="1500920" size="112" />
			<output>
				<port id="0" precision="FP16">
					<dim>1</dim>
					<dim>56</dim>
					<dim>1</dim>
					<dim>1</dim>
				</port>
			</output>
		</layer>
		<layer id="268" name="/model.17/cv3/conv/Conv" type="Add" version="opset1">
			<data auto_broadcast="numpy" />
			<input>
				<port id="0" precision="FP16">
					<dim>1</dim>
					<dim>56</dim>
					<dim>48</dim>
					<dim>48</dim>
				</port>
				<port id="1" precision="FP16">
					<dim>1</dim>
					<dim>56</dim>
					<dim>1</dim>
					<dim>1</dim>
				</port>
			</input>
			<output>
				<port id="2" precision="FP16" names="/model.17/cv3/conv/Conv_output_0">
					<dim>1</dim>
					<dim>56</dim>
					<dim>48</dim>
					<dim>48</dim>
				</port>
			</output>
		</layer>
		<layer id="269" name="/model.17/cv3/act/Mul" type="Swish" version="opset4">
			<input>
				<port id="0" precision="FP16">
					<dim>1</dim>
					<dim>56</dim>
					<dim>48</dim>
					<dim>48</dim>
				</port>
			</input>
			<output>
				<port id="1" precision="FP16" names="/model.17/cv3/act/Mul_output_0">
					<dim>1</dim>
					<dim>56</dim>
					<dim>48</dim>
					<dim>48</dim>
				</port>
			</output>
		</layer>
		<layer id="270" name="model.24.m.0.weight" type="Const" version="opset1">
			<data element_type="f16" shape="18, 56, 1, 1" offset="1501032" size="2016" />
			<output>
				<port id="0" precision="FP16" names="model.24.m.0.weight">
					<dim>18</dim>
					<dim>56</dim>
					<dim>1</dim>
					<dim>1</dim>
				</port>
			</output>
		</layer>
		<layer id="271" name="/model.24/m.0/Conv/WithoutBiases" type="Convolution" version="opset1">
			<data strides="1, 1" dilations="1, 1" pads_begin="0, 0" pads_end="0, 0" auto_pad="explicit" />
			<input>
				<port id="0" precision="FP16">
					<dim>1</dim>
					<dim>56</dim>
					<dim>48</dim>
					<dim>48</dim>
				</port>
				<port id="1" precision="FP16">
					<dim>18</dim>
					<dim>56</dim>
					<dim>1</dim>
					<dim>1</dim>
				</port>
			</input>
			<output>
				<port id="2" precision="FP16">
					<dim>1</dim>
					<dim>18</dim>
					<dim>48</dim>
					<dim>48</dim>
				</port>
			</output>
		</layer>
		<layer id="272" name="Reshape_2953" type="Const" version="opset1">
			<data element_type="f16" shape="1, 18, 1, 1" offset="1503048" size="36" />
			<output>
				<port id="0" precision="FP16">
					<dim>1</dim>
					<dim>18</dim>
					<dim>1</dim>
					<dim>1</dim>
				</port>
			</output>
		</layer>
		<layer id="273" name="/model.24/m.0/Conv" type="Add" version="opset1">
			<data auto_broadcast="numpy" />
			<input>
				<port id="0" precision="FP16">
					<dim>1</dim>
					<dim>18</dim>
					<dim>48</dim>
					<dim>48</dim>
				</port>
				<port id="1" precision="FP16">
					<dim>1</dim>
					<dim>18</dim>
					<dim>1</dim>
					<dim>1</dim>
				</port>
			</input>
			<output>
				<port id="2" precision="FP16" names="/model.24/m.0/Conv_output_0">
					<dim>1</dim>
					<dim>18</dim>
					<dim>48</dim>
					<dim>48</dim>
				</port>
			</output>
		</layer>
		<layer id="274" name="/model.24/Constant" type="Const" version="opset1">
			<data element_type="i64" shape="5" offset="1503084" size="40" />
			<output>
				<port id="0" precision="I64" names="/model.24/Constant_output_0">
					<dim>5</dim>
				</port>
			</output>
		</layer>
		<layer id="275" name="/model.24/Reshape" type="Reshape" version="opset1">
			<data special_zero="true" />
			<input>
				<port id="0" precision="FP16">
					<dim>1</dim>
					<dim>18</dim>
					<dim>48</dim>
					<dim>48</dim>
				</port>
				<port id="1" precision="I64">
					<dim>5</dim>
				</port>
			</input>
			<output>
				<port id="2" precision="FP16" names="/model.24/Reshape_output_0">
					<dim>1</dim>
					<dim>3</dim>
					<dim>6</dim>
					<dim>48</dim>
					<dim>48</dim>
				</port>
			</output>
		</layer>
		<layer id="276" name="Constant_2988" type="Const" version="opset1">
			<data element_type="i64" shape="5" offset="1503124" size="40" />
			<output>
				<port id="0" precision="I64">
					<dim>5</dim>
				</port>
			</output>
		</layer>
		<layer id="277" name="/model.24/Transpose" type="Transpose" version="opset1">
			<input>
				<port id="0" precision="FP16">
					<dim>1</dim>
					<dim>3</dim>
					<dim>6</dim>
					<dim>48</dim>
					<dim>48</dim>
				</port>
				<port id="1" precision="I64">
					<dim>5</dim>
				</port>
			</input>
			<output>
				<port id="2" precision="FP16" names="/model.24/Transpose_output_0">
					<dim>1</dim>
					<dim>3</dim>
					<dim>48</dim>
					<dim>48</dim>
					<dim>6</dim>
				</port>
			</output>
		</layer>
		<layer id="278" name="/model.24/Sigmoid" type="Sigmoid" version="opset1">
			<input>
				<port id="0" precision="FP16">
					<dim>1</dim>
					<dim>3</dim>
					<dim>48</dim>
					<dim>48</dim>
					<dim>6</dim>
				</port>
			</input>
			<output>
				<port id="1" precision="FP16" names="/model.24/Sigmoid_output_0">
					<dim>1</dim>
					<dim>3</dim>
					<dim>48</dim>
					<dim>48</dim>
					<dim>6</dim>
				</port>
			</output>
		</layer>
		<layer id="279" name="Constant_2992" type="Const" version="opset1">
			<data element_type="i64" shape="" offset="1503164" size="8" />
			<output>
				<port id="0" precision="I64" />
			</output>
		</layer>
		<layer id="280" name="Constant_226" type="Const" version="opset1">
			<data element_type="i64" shape="3" offset="1503172" size="24" />
			<output>
				<port id="0" precision="I64" names="onnx::Split_368">
					<dim>3</dim>
				</port>
			</output>
		</layer>
		<layer id="281" name="/model.24/Split" type="VariadicSplit" version="opset1">
			<input>
				<port id="0" precision="FP16">
					<dim>1</dim>
					<dim>3</dim>
					<dim>48</dim>
					<dim>48</dim>
					<dim>6</dim>
				</port>
				<port id="1" precision="I64" />
				<port id="2" precision="I64">
					<dim>3</dim>
				</port>
			</input>
			<output>
				<port id="3" precision="FP16" names="/model.24/Split_output_0">
					<dim>1</dim>
					<dim>3</dim>
					<dim>48</dim>
					<dim>48</dim>
					<dim>2</dim>
				</port>
				<port id="4" precision="FP16" names="/model.24/Split_output_1">
					<dim>1</dim>
					<dim>3</dim>
					<dim>48</dim>
					<dim>48</dim>
					<dim>2</dim>
				</port>
				<port id="5" precision="FP16" names="/model.24/Split_output_2">
					<dim>1</dim>
					<dim>3</dim>
					<dim>48</dim>
					<dim>48</dim>
					<dim>2</dim>
				</port>
			</output>
		</layer>
		<layer id="282" name="Constant_9273" type="Const" version="opset1">
			<data element_type="f16" shape="1, 1, 1, 1, 1" offset="1503196" size="2" />
			<output>
				<port id="0" precision="FP16">
					<dim>1</dim>
					<dim>1</dim>
					<dim>1</dim>
					<dim>1</dim>
					<dim>1</dim>
				</port>
			</output>
		</layer>
		<layer id="283" name="Multiply_9186" type="Multiply" version="opset1">
			<data auto_broadcast="numpy" />
			<input>
				<port id="0" precision="FP16">
					<dim>1</dim>
					<dim>3</dim>
					<dim>48</dim>
					<dim>48</dim>
					<dim>2</dim>
				</port>
				<port id="1" precision="FP16">
					<dim>1</dim>
					<dim>1</dim>
					<dim>1</dim>
					<dim>1</dim>
					<dim>1</dim>
				</port>
			</input>
			<output>
				<port id="2" precision="FP16">
					<dim>1</dim>
					<dim>3</dim>
					<dim>48</dim>
					<dim>48</dim>
					<dim>2</dim>
				</port>
			</output>
		</layer>
		<layer id="284" name="Constant_9188" type="Const" version="opset1">
			<data element_type="f16" shape="1, 3, 48, 48, 2" offset="1503198" size="27648" />
			<output>
				<port id="0" precision="FP16">
					<dim>1</dim>
					<dim>3</dim>
					<dim>48</dim>
					<dim>48</dim>
					<dim>2</dim>
				</port>
			</output>
		</layer>
		<layer id="285" name="/model.24/Mul_1" type="Add" version="opset1">
			<data auto_broadcast="numpy" />
			<input>
				<port id="0" precision="FP16">
					<dim>1</dim>
					<dim>3</dim>
					<dim>48</dim>
					<dim>48</dim>
					<dim>2</dim>
				</port>
				<port id="1" precision="FP16">
					<dim>1</dim>
					<dim>3</dim>
					<dim>48</dim>
					<dim>48</dim>
					<dim>2</dim>
				</port>
			</input>
			<output>
				<port id="2" precision="FP16" names="/model.24/Mul_1_output_0">
					<dim>1</dim>
					<dim>3</dim>
					<dim>48</dim>
					<dim>48</dim>
					<dim>2</dim>
				</port>
			</output>
		</layer>
		<layer id="286" name="Constant_9274" type="Const" version="opset1">
			<data element_type="f16" shape="1, 1, 1, 1, 1" offset="1530846" size="2" />
			<output>
				<port id="0" precision="FP16">
					<dim>1</dim>
					<dim>1</dim>
					<dim>1</dim>
					<dim>1</dim>
					<dim>1</dim>
				</port>
			</output>
		</layer>
		<layer id="287" name="/model.24/Mul_2" type="Multiply" version="opset1">
			<data auto_broadcast="numpy" />
			<input>
				<port id="0" precision="FP16">
					<dim>1</dim>
					<dim>3</dim>
					<dim>48</dim>
					<dim>48</dim>
					<dim>2</dim>
				</port>
				<port id="1" precision="FP16">
					<dim>1</dim>
					<dim>1</dim>
					<dim>1</dim>
					<dim>1</dim>
					<dim>1</dim>
				</port>
			</input>
			<output>
				<port id="2" precision="FP16" names="/model.24/Mul_2_output_0">
					<dim>1</dim>
					<dim>3</dim>
					<dim>48</dim>
					<dim>48</dim>
					<dim>2</dim>
				</port>
			</output>
		</layer>
		<layer id="288" name="Constant_9275" type="Const" version="opset1">
			<data element_type="f16" shape="1, 1, 1, 1, 1" offset="1530846" size="2" />
			<output>
				<port id="0" precision="FP16">
					<dim>1</dim>
					<dim>1</dim>
					<dim>1</dim>
					<dim>1</dim>
					<dim>1</dim>
				</port>
			</output>
		</layer>
		<layer id="289" name="/model.24/Pow" type="Power" version="opset1">
			<data auto_broadcast="numpy" />
			<input>
				<port id="0" precision="FP16">
					<dim>1</dim>
					<dim>3</dim>
					<dim>48</dim>
					<dim>48</dim>
					<dim>2</dim>
				</port>
				<port id="1" precision="FP16">
					<dim>1</dim>
					<dim>1</dim>
					<dim>1</dim>
					<dim>1</dim>
					<dim>1</dim>
				</port>
			</input>
			<output>
				<port id="2" precision="FP16" names="/model.24/Pow_output_0">
					<dim>1</dim>
					<dim>3</dim>
					<dim>48</dim>
					<dim>48</dim>
					<dim>2</dim>
				</port>
			</output>
		</layer>
		<layer id="290" name="/model.24/Constant_6" type="Const" version="opset1">
			<data element_type="f16" shape="1, 3, 48, 48, 2" offset="1530848" size="27648" />
			<output>
				<port id="0" precision="FP16" names="/model.24/Constant_6_output_0">
					<dim>1</dim>
					<dim>3</dim>
					<dim>48</dim>
					<dim>48</dim>
					<dim>2</dim>
				</port>
			</output>
		</layer>
		<layer id="291" name="/model.24/Mul_3" type="Multiply" version="opset1">
			<data auto_broadcast="numpy" />
			<input>
				<port id="0" precision="FP16">
					<dim>1</dim>
					<dim>3</dim>
					<dim>48</dim>
					<dim>48</dim>
					<dim>2</dim>
				</port>
				<port id="1" precision="FP16">
					<dim>1</dim>
					<dim>3</dim>
					<dim>48</dim>
					<dim>48</dim>
					<dim>2</dim>
				</port>
			</input>
			<output>
				<port id="2" precision="FP16" names="/model.24/Mul_3_output_0">
					<dim>1</dim>
					<dim>3</dim>
					<dim>48</dim>
					<dim>48</dim>
					<dim>2</dim>
				</port>
			</output>
		</layer>
		<layer id="292" name="/model.24/Concat" type="Concat" version="opset1">
			<data axis="4" />
			<input>
				<port id="0" precision="FP16">
					<dim>1</dim>
					<dim>3</dim>
					<dim>48</dim>
					<dim>48</dim>
					<dim>2</dim>
				</port>
				<port id="1" precision="FP16">
					<dim>1</dim>
					<dim>3</dim>
					<dim>48</dim>
					<dim>48</dim>
					<dim>2</dim>
				</port>
				<port id="2" precision="FP16">
					<dim>1</dim>
					<dim>3</dim>
					<dim>48</dim>
					<dim>48</dim>
					<dim>2</dim>
				</port>
			</input>
			<output>
				<port id="3" precision="FP16" names="/model.24/Concat_output_0">
					<dim>1</dim>
					<dim>3</dim>
					<dim>48</dim>
					<dim>48</dim>
					<dim>6</dim>
				</port>
			</output>
		</layer>
		<layer id="293" name="/model.24/Constant_7" type="Const" version="opset1">
			<data element_type="i64" shape="3" offset="1558496" size="24" />
			<output>
				<port id="0" precision="I64" names="/model.24/Constant_7_output_0">
					<dim>3</dim>
				</port>
			</output>
		</layer>
		<layer id="294" name="/model.24/Reshape_1" type="Reshape" version="opset1">
			<data special_zero="true" />
			<input>
				<port id="0" precision="FP16">
					<dim>1</dim>
					<dim>3</dim>
					<dim>48</dim>
					<dim>48</dim>
					<dim>6</dim>
				</port>
				<port id="1" precision="I64">
					<dim>3</dim>
				</port>
			</input>
			<output>
				<port id="2" precision="FP16" names="/model.24/Reshape_1_output_0">
					<dim>1</dim>
					<dim>6912</dim>
					<dim>6</dim>
				</port>
			</output>
		</layer>
		<layer id="295" name="model.18.conv.weight" type="Const" version="opset1">
			<data element_type="f16" shape="56, 56, 3, 3" offset="1558520" size="56448" />
			<output>
				<port id="0" precision="FP16" names="model.18.conv.weight">
					<dim>56</dim>
					<dim>56</dim>
					<dim>3</dim>
					<dim>3</dim>
				</port>
			</output>
		</layer>
		<layer id="296" name="/model.18/conv/Conv/WithoutBiases" type="Convolution" version="opset1">
			<data strides="2, 2" dilations="1, 1" pads_begin="1, 1" pads_end="1, 1" auto_pad="explicit" />
			<input>
				<port id="0" precision="FP16">
					<dim>1</dim>
					<dim>56</dim>
					<dim>48</dim>
					<dim>48</dim>
				</port>
				<port id="1" precision="FP16">
					<dim>56</dim>
					<dim>56</dim>
					<dim>3</dim>
					<dim>3</dim>
				</port>
			</input>
			<output>
				<port id="2" precision="FP16">
					<dim>1</dim>
					<dim>56</dim>
					<dim>24</dim>
					<dim>24</dim>
				</port>
			</output>
		</layer>
		<layer id="297" name="Reshape_2349" type="Const" version="opset1">
			<data element_type="f16" shape="1, 56, 1, 1" offset="1614968" size="112" />
			<output>
				<port id="0" precision="FP16">
					<dim>1</dim>
					<dim>56</dim>
					<dim>1</dim>
					<dim>1</dim>
				</port>
			</output>
		</layer>
		<layer id="298" name="/model.18/conv/Conv" type="Add" version="opset1">
			<data auto_broadcast="numpy" />
			<input>
				<port id="0" precision="FP16">
					<dim>1</dim>
					<dim>56</dim>
					<dim>24</dim>
					<dim>24</dim>
				</port>
				<port id="1" precision="FP16">
					<dim>1</dim>
					<dim>56</dim>
					<dim>1</dim>
					<dim>1</dim>
				</port>
			</input>
			<output>
				<port id="2" precision="FP16" names="/model.18/conv/Conv_output_0">
					<dim>1</dim>
					<dim>56</dim>
					<dim>24</dim>
					<dim>24</dim>
				</port>
			</output>
		</layer>
		<layer id="299" name="/model.18/act/Mul" type="Swish" version="opset4">
			<input>
				<port id="0" precision="FP16">
					<dim>1</dim>
					<dim>56</dim>
					<dim>24</dim>
					<dim>24</dim>
				</port>
			</input>
			<output>
				<port id="1" precision="FP16" names="/model.18/act/Mul_output_0">
					<dim>1</dim>
					<dim>56</dim>
					<dim>24</dim>
					<dim>24</dim>
				</port>
			</output>
		</layer>
		<layer id="300" name="/model.19/Concat" type="Concat" version="opset1">
			<data axis="1" />
			<input>
				<port id="0" precision="FP16">
					<dim>1</dim>
					<dim>56</dim>
					<dim>24</dim>
					<dim>24</dim>
				</port>
				<port id="1" precision="FP16">
					<dim>1</dim>
					<dim>56</dim>
					<dim>24</dim>
					<dim>24</dim>
				</port>
			</input>
			<output>
				<port id="2" precision="FP16" names="/model.19/Concat_output_0">
					<dim>1</dim>
					<dim>112</dim>
					<dim>24</dim>
					<dim>24</dim>
				</port>
			</output>
		</layer>
		<layer id="301" name="model.20.cv1.conv.weight" type="Const" version="opset1">
			<data element_type="f16" shape="52, 112, 1, 1" offset="1615080" size="11648" />
			<output>
				<port id="0" precision="FP16" names="model.20.cv1.conv.weight">
					<dim>52</dim>
					<dim>112</dim>
					<dim>1</dim>
					<dim>1</dim>
				</port>
			</output>
		</layer>
		<layer id="302" name="/model.20/cv1/conv/Conv/WithoutBiases" type="Convolution" version="opset1">
			<data strides="1, 1" dilations="1, 1" pads_begin="0, 0" pads_end="0, 0" auto_pad="explicit" />
			<input>
				<port id="0" precision="FP16">
					<dim>1</dim>
					<dim>112</dim>
					<dim>24</dim>
					<dim>24</dim>
				</port>
				<port id="1" precision="FP16">
					<dim>52</dim>
					<dim>112</dim>
					<dim>1</dim>
					<dim>1</dim>
				</port>
			</input>
			<output>
				<port id="2" precision="FP16">
					<dim>1</dim>
					<dim>52</dim>
					<dim>24</dim>
					<dim>24</dim>
				</port>
			</output>
		</layer>
		<layer id="303" name="Reshape_2400" type="Const" version="opset1">
			<data element_type="f16" shape="1, 52, 1, 1" offset="1626728" size="104" />
			<output>
				<port id="0" precision="FP16">
					<dim>1</dim>
					<dim>52</dim>
					<dim>1</dim>
					<dim>1</dim>
				</port>
			</output>
		</layer>
		<layer id="304" name="/model.20/cv1/conv/Conv" type="Add" version="opset1">
			<data auto_broadcast="numpy" />
			<input>
				<port id="0" precision="FP16">
					<dim>1</dim>
					<dim>52</dim>
					<dim>24</dim>
					<dim>24</dim>
				</port>
				<port id="1" precision="FP16">
					<dim>1</dim>
					<dim>52</dim>
					<dim>1</dim>
					<dim>1</dim>
				</port>
			</input>
			<output>
				<port id="2" precision="FP16" names="/model.20/cv1/conv/Conv_output_0">
					<dim>1</dim>
					<dim>52</dim>
					<dim>24</dim>
					<dim>24</dim>
				</port>
			</output>
		</layer>
		<layer id="305" name="/model.20/cv1/act/Mul" type="Swish" version="opset4">
			<input>
				<port id="0" precision="FP16">
					<dim>1</dim>
					<dim>52</dim>
					<dim>24</dim>
					<dim>24</dim>
				</port>
			</input>
			<output>
				<port id="1" precision="FP16" names="/model.20/cv1/act/Mul_output_0">
					<dim>1</dim>
					<dim>52</dim>
					<dim>24</dim>
					<dim>24</dim>
				</port>
			</output>
		</layer>
		<layer id="306" name="model.20.m.0.cv1.conv.weight" type="Const" version="opset1">
			<data element_type="f16" shape="52, 52, 1, 1" offset="1626832" size="5408" />
			<output>
				<port id="0" precision="FP16" names="model.20.m.0.cv1.conv.weight">
					<dim>52</dim>
					<dim>52</dim>
					<dim>1</dim>
					<dim>1</dim>
				</port>
			</output>
		</layer>
		<layer id="307" name="/model.20/m/m.0/cv1/conv/Conv/WithoutBiases" type="Convolution" version="opset1">
			<data strides="1, 1" dilations="1, 1" pads_begin="0, 0" pads_end="0, 0" auto_pad="explicit" />
			<input>
				<port id="0" precision="FP16">
					<dim>1</dim>
					<dim>52</dim>
					<dim>24</dim>
					<dim>24</dim>
				</port>
				<port id="1" precision="FP16">
					<dim>52</dim>
					<dim>52</dim>
					<dim>1</dim>
					<dim>1</dim>
				</port>
			</input>
			<output>
				<port id="2" precision="FP16">
					<dim>1</dim>
					<dim>52</dim>
					<dim>24</dim>
					<dim>24</dim>
				</port>
			</output>
		</layer>
		<layer id="308" name="Reshape_2450" type="Const" version="opset1">
			<data element_type="f16" shape="1, 52, 1, 1" offset="1632240" size="104" />
			<output>
				<port id="0" precision="FP16">
					<dim>1</dim>
					<dim>52</dim>
					<dim>1</dim>
					<dim>1</dim>
				</port>
			</output>
		</layer>
		<layer id="309" name="/model.20/m/m.0/cv1/conv/Conv" type="Add" version="opset1">
			<data auto_broadcast="numpy" />
			<input>
				<port id="0" precision="FP16">
					<dim>1</dim>
					<dim>52</dim>
					<dim>24</dim>
					<dim>24</dim>
				</port>
				<port id="1" precision="FP16">
					<dim>1</dim>
					<dim>52</dim>
					<dim>1</dim>
					<dim>1</dim>
				</port>
			</input>
			<output>
				<port id="2" precision="FP16" names="/model.20/m/m.0/cv1/conv/Conv_output_0">
					<dim>1</dim>
					<dim>52</dim>
					<dim>24</dim>
					<dim>24</dim>
				</port>
			</output>
		</layer>
		<layer id="310" name="/model.20/m/m.0/cv1/act/Mul" type="Swish" version="opset4">
			<input>
				<port id="0" precision="FP16">
					<dim>1</dim>
					<dim>52</dim>
					<dim>24</dim>
					<dim>24</dim>
				</port>
			</input>
			<output>
				<port id="1" precision="FP16" names="/model.20/m/m.0/cv1/act/Mul_output_0">
					<dim>1</dim>
					<dim>52</dim>
					<dim>24</dim>
					<dim>24</dim>
				</port>
			</output>
		</layer>
		<layer id="311" name="model.20.m.0.cv2.conv.weight" type="Const" version="opset1">
			<data element_type="f16" shape="52, 52, 3, 3" offset="1632344" size="48672" />
			<output>
				<port id="0" precision="FP16" names="model.20.m.0.cv2.conv.weight">
					<dim>52</dim>
					<dim>52</dim>
					<dim>3</dim>
					<dim>3</dim>
				</port>
			</output>
		</layer>
		<layer id="312" name="/model.20/m/m.0/cv2/conv/Conv/WithoutBiases" type="Convolution" version="opset1">
			<data strides="1, 1" dilations="1, 1" pads_begin="1, 1" pads_end="1, 1" auto_pad="explicit" />
			<input>
				<port id="0" precision="FP16">
					<dim>1</dim>
					<dim>52</dim>
					<dim>24</dim>
					<dim>24</dim>
				</port>
				<port id="1" precision="FP16">
					<dim>52</dim>
					<dim>52</dim>
					<dim>3</dim>
					<dim>3</dim>
				</port>
			</input>
			<output>
				<port id="2" precision="FP16">
					<dim>1</dim>
					<dim>52</dim>
					<dim>24</dim>
					<dim>24</dim>
				</port>
			</output>
		</layer>
		<layer id="313" name="Reshape_2500" type="Const" version="opset1">
			<data element_type="f16" shape="1, 52, 1, 1" offset="1681016" size="104" />
			<output>
				<port id="0" precision="FP16">
					<dim>1</dim>
					<dim>52</dim>
					<dim>1</dim>
					<dim>1</dim>
				</port>
			</output>
		</layer>
		<layer id="314" name="/model.20/m/m.0/cv2/conv/Conv" type="Add" version="opset1">
			<data auto_broadcast="numpy" />
			<input>
				<port id="0" precision="FP16">
					<dim>1</dim>
					<dim>52</dim>
					<dim>24</dim>
					<dim>24</dim>
				</port>
				<port id="1" precision="FP16">
					<dim>1</dim>
					<dim>52</dim>
					<dim>1</dim>
					<dim>1</dim>
				</port>
			</input>
			<output>
				<port id="2" precision="FP16" names="/model.20/m/m.0/cv2/conv/Conv_output_0">
					<dim>1</dim>
					<dim>52</dim>
					<dim>24</dim>
					<dim>24</dim>
				</port>
			</output>
		</layer>
		<layer id="315" name="/model.20/m/m.0/cv2/act/Mul" type="Swish" version="opset4">
			<input>
				<port id="0" precision="FP16">
					<dim>1</dim>
					<dim>52</dim>
					<dim>24</dim>
					<dim>24</dim>
				</port>
			</input>
			<output>
				<port id="1" precision="FP16" names="/model.20/m/m.0/cv2/act/Mul_output_0">
					<dim>1</dim>
					<dim>52</dim>
					<dim>24</dim>
					<dim>24</dim>
				</port>
			</output>
		</layer>
		<layer id="316" name="model.20.cv2.conv.weight" type="Const" version="opset1">
			<data element_type="f16" shape="52, 112, 1, 1" offset="1681120" size="11648" />
			<output>
				<port id="0" precision="FP16" names="model.20.cv2.conv.weight">
					<dim>52</dim>
					<dim>112</dim>
					<dim>1</dim>
					<dim>1</dim>
				</port>
			</output>
		</layer>
		<layer id="317" name="/model.20/cv2/conv/Conv/WithoutBiases" type="Convolution" version="opset1">
			<data strides="1, 1" dilations="1, 1" pads_begin="0, 0" pads_end="0, 0" auto_pad="explicit" />
			<input>
				<port id="0" precision="FP16">
					<dim>1</dim>
					<dim>112</dim>
					<dim>24</dim>
					<dim>24</dim>
				</port>
				<port id="1" precision="FP16">
					<dim>52</dim>
					<dim>112</dim>
					<dim>1</dim>
					<dim>1</dim>
				</port>
			</input>
			<output>
				<port id="2" precision="FP16">
					<dim>1</dim>
					<dim>52</dim>
					<dim>24</dim>
					<dim>24</dim>
				</port>
			</output>
		</layer>
		<layer id="318" name="Reshape_2550" type="Const" version="opset1">
			<data element_type="f16" shape="1, 52, 1, 1" offset="1692768" size="104" />
			<output>
				<port id="0" precision="FP16">
					<dim>1</dim>
					<dim>52</dim>
					<dim>1</dim>
					<dim>1</dim>
				</port>
			</output>
		</layer>
		<layer id="319" name="/model.20/cv2/conv/Conv" type="Add" version="opset1">
			<data auto_broadcast="numpy" />
			<input>
				<port id="0" precision="FP16">
					<dim>1</dim>
					<dim>52</dim>
					<dim>24</dim>
					<dim>24</dim>
				</port>
				<port id="1" precision="FP16">
					<dim>1</dim>
					<dim>52</dim>
					<dim>1</dim>
					<dim>1</dim>
				</port>
			</input>
			<output>
				<port id="2" precision="FP16" names="/model.20/cv2/conv/Conv_output_0">
					<dim>1</dim>
					<dim>52</dim>
					<dim>24</dim>
					<dim>24</dim>
				</port>
			</output>
		</layer>
		<layer id="320" name="/model.20/cv2/act/Mul" type="Swish" version="opset4">
			<input>
				<port id="0" precision="FP16">
					<dim>1</dim>
					<dim>52</dim>
					<dim>24</dim>
					<dim>24</dim>
				</port>
			</input>
			<output>
				<port id="1" precision="FP16" names="/model.20/cv2/act/Mul_output_0">
					<dim>1</dim>
					<dim>52</dim>
					<dim>24</dim>
					<dim>24</dim>
				</port>
			</output>
		</layer>
		<layer id="321" name="/model.20/Concat" type="Concat" version="opset1">
			<data axis="1" />
			<input>
				<port id="0" precision="FP16">
					<dim>1</dim>
					<dim>52</dim>
					<dim>24</dim>
					<dim>24</dim>
				</port>
				<port id="1" precision="FP16">
					<dim>1</dim>
					<dim>52</dim>
					<dim>24</dim>
					<dim>24</dim>
				</port>
			</input>
			<output>
				<port id="2" precision="FP16" names="/model.20/Concat_output_0">
					<dim>1</dim>
					<dim>104</dim>
					<dim>24</dim>
					<dim>24</dim>
				</port>
			</output>
		</layer>
		<layer id="322" name="model.20.cv3.conv.weight" type="Const" version="opset1">
			<data element_type="f16" shape="104, 104, 1, 1" offset="1692872" size="21632" />
			<output>
				<port id="0" precision="FP16" names="model.20.cv3.conv.weight">
					<dim>104</dim>
					<dim>104</dim>
					<dim>1</dim>
					<dim>1</dim>
				</port>
			</output>
		</layer>
		<layer id="323" name="/model.20/cv3/conv/Conv/WithoutBiases" type="Convolution" version="opset1">
			<data strides="1, 1" dilations="1, 1" pads_begin="0, 0" pads_end="0, 0" auto_pad="explicit" />
			<input>
				<port id="0" precision="FP16">
					<dim>1</dim>
					<dim>104</dim>
					<dim>24</dim>
					<dim>24</dim>
				</port>
				<port id="1" precision="FP16">
					<dim>104</dim>
					<dim>104</dim>
					<dim>1</dim>
					<dim>1</dim>
				</port>
			</input>
			<output>
				<port id="2" precision="FP16">
					<dim>1</dim>
					<dim>104</dim>
					<dim>24</dim>
					<dim>24</dim>
				</port>
			</output>
		</layer>
		<layer id="324" name="Reshape_2601" type="Const" version="opset1">
			<data element_type="f16" shape="1, 104, 1, 1" offset="1714504" size="208" />
			<output>
				<port id="0" precision="FP16">
					<dim>1</dim>
					<dim>104</dim>
					<dim>1</dim>
					<dim>1</dim>
				</port>
			</output>
		</layer>
		<layer id="325" name="/model.20/cv3/conv/Conv" type="Add" version="opset1">
			<data auto_broadcast="numpy" />
			<input>
				<port id="0" precision="FP16">
					<dim>1</dim>
					<dim>104</dim>
					<dim>24</dim>
					<dim>24</dim>
				</port>
				<port id="1" precision="FP16">
					<dim>1</dim>
					<dim>104</dim>
					<dim>1</dim>
					<dim>1</dim>
				</port>
			</input>
			<output>
				<port id="2" precision="FP16" names="/model.20/cv3/conv/Conv_output_0">
					<dim>1</dim>
					<dim>104</dim>
					<dim>24</dim>
					<dim>24</dim>
				</port>
			</output>
		</layer>
		<layer id="326" name="/model.20/cv3/act/Mul" type="Swish" version="opset4">
			<input>
				<port id="0" precision="FP16">
					<dim>1</dim>
					<dim>104</dim>
					<dim>24</dim>
					<dim>24</dim>
				</port>
			</input>
			<output>
				<port id="1" precision="FP16" names="/model.20/cv3/act/Mul_output_0">
					<dim>1</dim>
					<dim>104</dim>
					<dim>24</dim>
					<dim>24</dim>
				</port>
			</output>
		</layer>
		<layer id="327" name="model.24.m.1.weight" type="Const" version="opset1">
			<data element_type="f16" shape="18, 104, 1, 1" offset="1714712" size="3744" />
			<output>
				<port id="0" precision="FP16" names="model.24.m.1.weight">
					<dim>18</dim>
					<dim>104</dim>
					<dim>1</dim>
					<dim>1</dim>
				</port>
			</output>
		</layer>
		<layer id="328" name="/model.24/m.1/Conv/WithoutBiases" type="Convolution" version="opset1">
			<data strides="1, 1" dilations="1, 1" pads_begin="0, 0" pads_end="0, 0" auto_pad="explicit" />
			<input>
				<port id="0" precision="FP16">
					<dim>1</dim>
					<dim>104</dim>
					<dim>24</dim>
					<dim>24</dim>
				</port>
				<port id="1" precision="FP16">
					<dim>18</dim>
					<dim>104</dim>
					<dim>1</dim>
					<dim>1</dim>
				</port>
			</input>
			<output>
				<port id="2" precision="FP16">
					<dim>1</dim>
					<dim>18</dim>
					<dim>24</dim>
					<dim>24</dim>
				</port>
			</output>
		</layer>
		<layer id="329" name="Reshape_3034" type="Const" version="opset1">
…
			<data strides="1, 1" dilations="1, 1" pads_begin="1, 1" pads_end="1, 1" auto_pad="explicit" />
			<input>
				<port id="0" precision="FP16">
					<dim>1</dim>
					<dim>100</dim>
					<dim>12</dim>
					<dim>12</dim>
				</port>
				<port id="1" precision="FP16">
					<dim>100</dim>
					<dim>100</dim>
					<dim>3</dim>
					<dim>3</dim>
				</port>
			</input>
			<output>
				<port id="2" precision="FP16">
					<dim>1</dim>
					<dim>100</dim>
					<dim>12</dim>
					<dim>12</dim>
				</port>
			</output>
		</layer>
		<layer id="369" name="Reshape_2802" type="Const" version="opset1">
			<data element_type="f16" shape="1, 100, 1, 1" offset="2169278" size="200" />
			<output>
				<port id="0" precision="FP16">
					<dim>1</dim>
					<dim>100</dim>
					<dim>1</dim>
					<dim>1</dim>
				</port>
			</output>
		</layer>
		<layer id="370" name="/model.23/m/m.0/cv2/conv/Conv" type="Add" version="opset1">
			<data auto_broadcast="numpy" />
			<input>
				<port id="0" precision="FP16">
					<dim>1</dim>
					<dim>100</dim>
					<dim>12</dim>
					<dim>12</dim>
				</port>
				<port id="1" precision="FP16">
					<dim>1</dim>
					<dim>100</dim>
					<dim>1</dim>
					<dim>1</dim>
				</port>
			</input>
			<output>
				<port id="2" precision="FP16" names="/model.23/m/m.0/cv2/conv/Conv_output_0">
					<dim>1</dim>
					<dim>100</dim>
					<dim>12</dim>
					<dim>12</dim>
				</port>
			</output>
		</layer>
		<layer id="371" name="/model.23/m/m.0/cv2/act/Mul" type="Swish" version="opset4">
			<input>
				<port id="0" precision="FP16">
					<dim>1</dim>
					<dim>100</dim>
					<dim>12</dim>
					<dim>12</dim>
				</port>
			</input>
			<output>
				<port id="1" precision="FP16" names="/model.23/m/m.0/cv2/act/Mul_output_0">
					<dim>1</dim>
					<dim>100</dim>
					<dim>12</dim>
					<dim>12</dim>
				</port>
			</output>
		</layer>
		<layer id="372" name="model.23.cv2.conv.weight" type="Const" version="opset1">
			<data element_type="f16" shape="100, 208, 1, 1" offset="2169478" size="41600" />
			<output>
				<port id="0" precision="FP16" names="model.23.cv2.conv.weight">
					<dim>100</dim>
					<dim>208</dim>
					<dim>1</dim>
					<dim>1</dim>
				</port>
			</output>
		</layer>
		<layer id="373" name="/model.23/cv2/conv/Conv/WithoutBiases" type="Convolution" version="opset1">
			<data strides="1, 1" dilations="1, 1" pads_begin="0, 0" pads_end="0, 0" auto_pad="explicit" />
			<input>
				<port id="0" precision="FP16">
					<dim>1</dim>
					<dim>208</dim>
					<dim>12</dim>
					<dim>12</dim>
				</port>
				<port id="1" precision="FP16">
					<dim>100</dim>
					<dim>208</dim>
					<dim>1</dim>
					<dim>1</dim>
				</port>
			</input>
			<output>
				<port id="2" precision="FP16">
					<dim>1</dim>
					<dim>100</dim>
					<dim>12</dim>
					<dim>12</dim>
				</port>
			</output>
		</layer>
		<layer id="374" name="Reshape_2852" type="Const" version="opset1">
			<data element_type="f16" shape="1, 100, 1, 1" offset="2211078" size="200" />
			<output>
				<port id="0" precision="FP16">
					<dim>1</dim>
					<dim>100</dim>
					<dim>1</dim>
					<dim>1</dim>
				</port>
			</output>
		</layer>
		<layer id="375" name="/model.23/cv2/conv/Conv" type="Add" version="opset1">
			<data auto_broadcast="numpy" />
			<input>
				<port id="0" precision="FP16">
					<dim>1</dim>
					<dim>100</dim>
					<dim>12</dim>
					<dim>12</dim>
				</port>
				<port id="1" precision="FP16">
					<dim>1</dim>
					<dim>100</dim>
					<dim>1</dim>
					<dim>1</dim>
				</port>
			</input>
			<output>
				<port id="2" precision="FP16" names="/model.23/cv2/conv/Conv_output_0">
					<dim>1</dim>
					<dim>100</dim>
					<dim>12</dim>
					<dim>12</dim>
				</port>
			</output>
		</layer>
		<layer id="376" name="/model.23/cv2/act/Mul" type="Swish" version="opset4">
			<input>
				<port id="0" precision="FP16">
					<dim>1</dim>
					<dim>100</dim>
					<dim>12</dim>
					<dim>12</dim>
				</port>
			</input>
			<output>
				<port id="1" precision="FP16" names="/model.23/cv2/act/Mul_output_0">
					<dim>1</dim>
					<dim>100</dim>
					<dim>12</dim>
					<dim>12</dim>
				</port>
			</output>
		</layer>
		<layer id="377" name="/model.23/Concat" type="Concat" version="opset1">
			<data axis="1" />
			<input>
				<port id="0" precision="FP16">
					<dim>1</dim>
					<dim>100</dim>
					<dim>12</dim>
					<dim>12</dim>
				</port>
				<port id="1" precision="FP16">
					<dim>1</dim>
					<dim>100</dim>
					<dim>12</dim>
					<dim>12</dim>
				</port>
			</input>
			<output>
				<port id="2" precision="FP16" names="/model.23/Concat_output_0">
					<dim>1</dim>
					<dim>200</dim>
					<dim>12</dim>
					<dim>12</dim>
				</port>
			</output>
		</layer>
		<layer id="378" name="model.23.cv3.conv.weight" type="Const" version="opset1">
			<data element_type="f16" shape="200, 200, 1, 1" offset="2211278" size="80000" />
			<output>
				<port id="0" precision="FP16" names="model.23.cv3.conv.weight">
					<dim>200</dim>
					<dim>200</dim>
					<dim>1</dim>
					<dim>1</dim>
				</port>
			</output>
		</layer>
		<layer id="379" name="/model.23/cv3/conv/Conv/WithoutBiases" type="Convolution" version="opset1">
			<data strides="1, 1" dilations="1, 1" pads_begin="0, 0" pads_end="0, 0" auto_pad="explicit" />
			<input>
				<port id="0" precision="FP16">
					<dim>1</dim>
					<dim>200</dim>
					<dim>12</dim>
					<dim>12</dim>
				</port>
				<port id="1" precision="FP16">
					<dim>200</dim>
					<dim>200</dim>
					<dim>1</dim>
					<dim>1</dim>
				</port>
			</input>
			<output>
				<port id="2" precision="FP16">
					<dim>1</dim>
					<dim>200</dim>
					<dim>12</dim>
					<dim>12</dim>
				</port>
			</output>
		</layer>
		<layer id="380" name="Reshape_2903" type="Const" version="opset1">
			<data element_type="f16" shape="1, 200, 1, 1" offset="2291278" size="400" />
			<output>
				<port id="0" precision="FP16">
					<dim>1</dim>
					<dim>200</dim>
					<dim>1</dim>
					<dim>1</dim>
				</port>
			</output>
		</layer>
		<layer id="381" name="/model.23/cv3/conv/Conv" type="Add" version="opset1">
			<data auto_broadcast="numpy" />
			<input>
				<port id="0" precision="FP16">
					<dim>1</dim>
					<dim>200</dim>
					<dim>12</dim>
					<dim>12</dim>
				</port>
				<port id="1" precision="FP16">
					<dim>1</dim>
					<dim>200</dim>
					<dim>1</dim>
					<dim>1</dim>
				</port>
			</input>
			<output>
				<port id="2" precision="FP16" names="/model.23/cv3/conv/Conv_output_0">
					<dim>1</dim>
					<dim>200</dim>
					<dim>12</dim>
					<dim>12</dim>
				</port>
			</output>
		</layer>
		<layer id="382" name="/model.23/cv3/act/Mul" type="Swish" version="opset4">
			<input>
				<port id="0" precision="FP16">
					<dim>1</dim>
					<dim>200</dim>
					<dim>12</dim>
					<dim>12</dim>
				</port>
			</input>
			<output>
				<port id="1" precision="FP16" names="/model.23/cv3/act/Mul_output_0">
					<dim>1</dim>
					<dim>200</dim>
					<dim>12</dim>
					<dim>12</dim>
				</port>
			</output>
		</layer>
		<layer id="383" name="model.24.m.2.weight" type="Const" version="opset1">
			<data element_type="f16" shape="18, 200, 1, 1" offset="2291678" size="7200" />
			<output>
				<port id="0" precision="FP16" names="model.24.m.2.weight">
					<dim>18</dim>
					<dim>200</dim>
					<dim>1</dim>
					<dim>1</dim>
				</port>
			</output>
		</layer>
		<layer id="384" name="/model.24/m.2/Conv/WithoutBiases" type="Convolution" version="opset1">
			<data strides="1, 1" dilations="1, 1" pads_begin="0, 0" pads_end="0, 0" auto_pad="explicit" />
			<input>
				<port id="0" precision="FP16">
					<dim>1</dim>
					<dim>200</dim>
					<dim>12</dim>
					<dim>12</dim>
				</port>
				<port id="1" precision="FP16">
					<dim>18</dim>
					<dim>200</dim>
					<dim>1</dim>
					<dim>1</dim>
				</port>
			</input>
			<output>
				<port id="2" precision="FP16">
					<dim>1</dim>
					<dim>18</dim>
					<dim>12</dim>
					<dim>12</dim>
				</port>
			</output>
		</layer>
		<layer id="385" name="Reshape_3114" type="Const" version="opset1">
			<data element_type="f16" shape="1, 18, 1, 1" offset="2298878" size="36" />
			<output>
				<port id="0" precision="FP16">
					<dim>1</dim>
					<dim>18</dim>
					<dim>1</dim>
					<dim>1</dim>
				</port>
			</output>
		</layer>
		<layer id="386" name="/model.24/m.2/Conv" type="Add" version="opset1">
			<data auto_broadcast="numpy" />
			<input>
				<port id="0" precision="FP16">
					<dim>1</dim>
					<dim>18</dim>
					<dim>12</dim>
					<dim>12</dim>
				</port>
				<port id="1" precision="FP16">
					<dim>1</dim>
					<dim>18</dim>
					<dim>1</dim>
					<dim>1</dim>
				</port>
			</input>
			<output>
				<port id="2" precision="FP16" names="/model.24/m.2/Conv_output_0">
					<dim>1</dim>
					<dim>18</dim>
					<dim>12</dim>
					<dim>12</dim>
				</port>
			</output>
		</layer>
		<layer id="387" name="/model.24/Constant_16" type="Const" version="opset1">
			<data element_type="i64" shape="5" offset="2298914" size="40" />
			<output>
				<port id="0" precision="I64" names="/model.24/Constant_16_output_0">
					<dim>5</dim>
				</port>
			</output>
		</layer>
		<layer id="388" name="/model.24/Reshape_4" type="Reshape" version="opset1">
			<data special_zero="true" />
			<input>
				<port id="0" precision="FP16">
					<dim>1</dim>
					<dim>18</dim>
					<dim>12</dim>
					<dim>12</dim>
				</port>
				<port id="1" precision="I64">
					<dim>5</dim>
				</port>
			</input>
			<output>
				<port id="2" precision="FP16" names="/model.24/Reshape_4_output_0">
					<dim>1</dim>
					<dim>3</dim>
					<dim>6</dim>
					<dim>12</dim>
					<dim>12</dim>
				</port>
			</output>
		</layer>
		<layer id="389" name="Constant_3149" type="Const" version="opset1">
			<data element_type="i64" shape="5" offset="1503124" size="40" />
			<output>
				<port id="0" precision="I64">
					<dim>5</dim>
				</port>
			</output>
		</layer>
		<layer id="390" name="/model.24/Transpose_2" type="Transpose" version="opset1">
			<input>
				<port id="0" precision="FP16">
					<dim>1</dim>
					<dim>3</dim>
					<dim>6</dim>
					<dim>12</dim>
					<dim>12</dim>
				</port>
				<port id="1" precision="I64">
					<dim>5</dim>
				</port>
			</input>
			<output>
				<port id="2" precision="FP16" names="/model.24/Transpose_2_output_0">
					<dim>1</dim>
					<dim>3</dim>
					<dim>12</dim>
					<dim>12</dim>
					<dim>6</dim>
				</port>
			</output>
		</layer>
		<layer id="391" name="/model.24/Sigmoid_2" type="Sigmoid" version="opset1">
			<input>
				<port id="0" precision="FP16">
					<dim>1</dim>
					<dim>3</dim>
					<dim>12</dim>
					<dim>12</dim>
					<dim>6</dim>
				</port>
			</input>
			<output>
				<port id="1" precision="FP16" names="/model.24/Sigmoid_2_output_0">
					<dim>1</dim>
					<dim>3</dim>
					<dim>12</dim>
					<dim>12</dim>
					<dim>6</dim>
				</port>
			</output>
		</layer>
		<layer id="392" name="Constant_3152" type="Const" version="opset1">
			<data element_type="i64" shape="" offset="1503164" size="8" />
			<output>
				<port id="0" precision="I64" />
			</output>
		</layer>
		<layer id="393" name="/model.24/Split_2" type="VariadicSplit" version="opset1">
			<input>
				<port id="0" precision="FP16">
					<dim>1</dim>
					<dim>3</dim>
					<dim>12</dim>
					<dim>12</dim>
					<dim>6</dim>
				</port>
				<port id="1" precision="I64" />
				<port id="2" precision="I64">
					<dim>3</dim>
				</port>
			</input>
			<output>
				<port id="3" precision="FP16" names="/model.24/Split_2_output_0">
					<dim>1</dim>
					<dim>3</dim>
					<dim>12</dim>
					<dim>12</dim>
					<dim>2</dim>
				</port>
				<port id="4" precision="FP16" names="/model.24/Split_2_output_1">
					<dim>1</dim>
					<dim>3</dim>
					<dim>12</dim>
					<dim>12</dim>
					<dim>2</dim>
				</port>
				<port id="5" precision="FP16" names="/model.24/Split_2_output_2">
					<dim>1</dim>
					<dim>3</dim>
					<dim>12</dim>
					<dim>12</dim>
					<dim>2</dim>
				</port>
			</output>
		</layer>
		<layer id="394" name="Constant_9279" type="Const" version="opset1">
			<data element_type="f16" shape="1, 1, 1, 1, 1" offset="2298954" size="2" />
			<output>
				<port id="0" precision="FP16">
					<dim>1</dim>
					<dim>1</dim>
					<dim>1</dim>
					<dim>1</dim>
					<dim>1</dim>
				</port>
			</output>
		</layer>
		<layer id="395" name="Multiply_9200" type="Multiply" version="opset1">
			<data auto_broadcast="numpy" />
			<input>
				<port id="0" precision="FP16">
					<dim>1</dim>
					<dim>3</dim>
					<dim>12</dim>
					<dim>12</dim>
					<dim>2</dim>
				</port>
				<port id="1" precision="FP16">
					<dim>1</dim>
					<dim>1</dim>
					<dim>1</dim>
					<dim>1</dim>
					<dim>1</dim>
				</port>
			</input>
			<output>
				<port id="2" precision="FP16">
					<dim>1</dim>
					<dim>3</dim>
					<dim>12</dim>
					<dim>12</dim>
					<dim>2</dim>
				</port>
			</output>
		</layer>
		<layer id="396" name="Constant_9202" type="Const" version="opset1">
			<data element_type="f16" shape="1, 3, 12, 12, 2" offset="2298956" size="1728" />
			<output>
				<port id="0" precision="FP16">
					<dim>1</dim>
					<dim>3</dim>
					<dim>12</dim>
					<dim>12</dim>
					<dim>2</dim>
				</port>
			</output>
		</layer>
		<layer id="397" name="/model.24/Mul_9" type="Add" version="opset1">
			<data auto_broadcast="numpy" />
			<input>
				<port id="0" precision="FP16">
					<dim>1</dim>
					<dim>3</dim>
					<dim>12</dim>
					<dim>12</dim>
					<dim>2</dim>
				</port>
				<port id="1" precision="FP16">
					<dim>1</dim>
					<dim>3</dim>
					<dim>12</dim>
					<dim>12</dim>
					<dim>2</dim>
				</port>
			</input>
			<output>
				<port id="2" precision="FP16" names="/model.24/Mul_9_output_0">
					<dim>1</dim>
					<dim>3</dim>
					<dim>12</dim>
					<dim>12</dim>
					<dim>2</dim>
				</port>
			</output>
		</layer>
		<layer id="398" name="Constant_9280" type="Const" version="opset1">
			<data element_type="f16" shape="1, 1, 1, 1, 1" offset="1530846" size="2" />
			<output>
				<port id="0" precision="FP16">
					<dim>1</dim>
					<dim>1</dim>
					<dim>1</dim>
					<dim>1</dim>
					<dim>1</dim>
				</port>
			</output>
		</layer>
		<layer id="399" name="/model.24/Mul_10" type="Multiply" version="opset1">
			<data auto_broadcast="numpy" />
			<input>
				<port id="0" precision="FP16">
					<dim>1</dim>
					<dim>3</dim>
					<dim>12</dim>
					<dim>12</dim>
					<dim>2</dim>
				</port>
				<port id="1" precision="FP16">
					<dim>1</dim>
					<dim>1</dim>
					<dim>1</dim>
					<dim>1</dim>
					<dim>1</dim>
				</port>
			</input>
			<output>
				<port id="2" precision="FP16" names="/model.24/Mul_10_output_0">
					<dim>1</dim>
					<dim>3</dim>
					<dim>12</dim>
					<dim>12</dim>
					<dim>2</dim>
				</port>
			</output>
		</layer>
		<layer id="400" name="Constant_9281" type="Const" version="opset1">
			<data element_type="f16" shape="1, 1, 1, 1, 1" offset="1530846" size="2" />
			<output>
				<port id="0" precision="FP16">
					<dim>1</dim>
					<dim>1</dim>
					<dim>1</dim>
					<dim>1</dim>
					<dim>1</dim>
				</port>
			</output>
		</layer>
		<layer id="401" name="/model.24/Pow_2" type="Power" version="opset1">
			<data auto_broadcast="numpy" />
			<input>
				<port id="0" precision="FP16">
					<dim>1</dim>
					<dim>3</dim>
					<dim>12</dim>
					<dim>12</dim>
					<dim>2</dim>
				</port>
				<port id="1" precision="FP16">
					<dim>1</dim>
					<dim>1</dim>
					<dim>1</dim>
					<dim>1</dim>
					<dim>1</dim>
				</port>
			</input>
			<output>
				<port id="2" precision="FP16" names="/model.24/Pow_2_output_0">
					<dim>1</dim>
					<dim>3</dim>
					<dim>12</dim>
					<dim>12</dim>
					<dim>2</dim>
				</port>
			</output>
		</layer>
		<layer id="402" name="/model.24/Constant_22" type="Const" version="opset1">
			<data element_type="f16" shape="1, 3, 12, 12, 2" offset="2300684" size="1728" />
			<output>
				<port id="0" precision="FP16" names="/model.24/Constant_22_output_0">
					<dim>1</dim>
					<dim>3</dim>
					<dim>12</dim>
					<dim>12</dim>
					<dim>2</dim>
				</port>
			</output>
		</layer>
		<layer id="403" name="/model.24/Mul_11" type="Multiply" version="opset1">
			<data auto_broadcast="numpy" />
			<input>
				<port id="0" precision="FP16">
					<dim>1</dim>
					<dim>3</dim>
					<dim>12</dim>
					<dim>12</dim>
					<dim>2</dim>
				</port>
				<port id="1" precision="FP16">
					<dim>1</dim>
					<dim>3</dim>
					<dim>12</dim>
					<dim>12</dim>
					<dim>2</dim>
				</port>
			</input>
			<output>
				<port id="2" precision="FP16" names="/model.24/Mul_11_output_0">
					<dim>1</dim>
					<dim>3</dim>
					<dim>12</dim>
					<dim>12</dim>
					<dim>2</dim>
				</port>
			</output>
		</layer>
		<layer id="404" name="/model.24/Concat_2" type="Concat" version="opset1">
			<data axis="4" />
			<input>
				<port id="0" precision="FP16">
					<dim>1</dim>
					<dim>3</dim>
					<dim>12</dim>
					<dim>12</dim>
					<dim>2</dim>
				</port>
				<port id="1" precision="FP16">
					<dim>1</dim>
					<dim>3</dim>
					<dim>12</dim>
					<dim>12</dim>
					<dim>2</dim>
				</port>
				<port id="2" precision="FP16">
					<dim>1</dim>
					<dim>3</dim>
					<dim>12</dim>
					<dim>12</dim>
					<dim>2</dim>
				</port>
			</input>
			<output>
				<port id="3" precision="FP16" names="/model.24/Concat_2_output_0">
					<dim>1</dim>
					<dim>3</dim>
					<dim>12</dim>
					<dim>12</dim>
					<dim>6</dim>
				</port>
			</output>
		</layer>
		<layer id="405" name="/model.24/Constant_23" type="Const" version="opset1">
			<data element_type="i64" shape="3" offset="2302412" size="24" />
			<output>
				<port id="0" precision="I64" names="/model.24/Constant_23_output_0">
					<dim>3</dim>
				</port>
			</output>
		</layer>
		<layer id="406" name="/model.24/Reshape_5" type="Reshape" version="opset1">
			<data special_zero="true" />
			<input>
				<port id="0" precision="FP16">
					<dim>1</dim>
					<dim>3</dim>
					<dim>12</dim>
					<dim>12</dim>
					<dim>6</dim>
				</port>
				<port id="1" precision="I64">
					<dim>3</dim>
				</port>
			</input>
			<output>
				<port id="2" precision="FP16" names="/model.24/Reshape_5_output_0">
					<dim>1</dim>
					<dim>432</dim>
					<dim>6</dim>
				</port>
			</output>
		</layer>
		<layer id="407" name="output0" type="Concat" version="opset1">
			<data axis="1" />
			<input>
				<port id="0" precision="FP16">
					<dim>1</dim>
					<dim>6912</dim>
					<dim>6</dim>
				</port>
				<port id="1" precision="FP16">
					<dim>1</dim>
					<dim>1728</dim>
					<dim>6</dim>
				</port>
				<port id="2" precision="FP16">
					<dim>1</dim>
					<dim>432</dim>
					<dim>6</dim>
				</port>
			</input>
			<output>
				<port id="3" precision="FP16" names="output0">
					<dim>1</dim>
					<dim>9072</dim>
					<dim>6</dim>
				</port>
			</output>
		</layer>
		<layer id="408" name="output0/sink_port_0" type="Result" version="opset1">
			<input>
				<port id="0" precision="FP16">
					<dim>1</dim>
					<dim>9072</dim>
					<dim>6</dim>
				</port>
			</input>
		</layer>
	</layers>
	<edges>
		<edge from-layer="0" from-port="0" to-layer="4" to-port="0" />
		<edge from-layer="0" from-port="0" to-layer="12" to-port="0" />
		<edge from-layer="1" from-port="0" to-layer="4" to-port="1" />
		<edge from-layer="2" from-port="0" to-layer="4" to-port="2" />
		<edge from-layer="3" from-port="0" to-layer="4" to-port="3" />
		<edge from-layer="4" from-port="4" to-layer="8" to-port="0" />
		<edge from-layer="4" from-port="4" to-layer="20" to-port="0" />
		<edge from-layer="5" from-port="0" to-layer="8" to-port="1" />
		<edge from-layer="6" from-port="0" to-layer="8" to-port="2" />
		<edge from-layer="7" from-port="0" to-layer="8" to-port="3" />
		<edge from-layer="8" from-port="4" to-layer="25" to-port="0" />
		<edge from-layer="9" from-port="0" to-layer="12" to-port="1" />
		<edge from-layer="10" from-port="0" to-layer="12" to-port="2" />
		<edge from-layer="11" from-port="0" to-layer="12" to-port="3" />
		<edge from-layer="12" from-port="4" to-layer="16" to-port="0" />
		<edge from-layer="12" from-port="4" to-layer="24" to-port="0" />
		<edge from-layer="13" from-port="0" to-layer="16" to-port="1" />
		<edge from-layer="14" from-port="0" to-layer="16" to-port="2" />
		<edge from-layer="15" from-port="0" to-layer="16" to-port="3" />
		<edge from-layer="16" from-port="4" to-layer="25" to-port="1" />
		<edge from-layer="17" from-port="0" to-layer="20" to-port="1" />
		<edge from-layer="18" from-port="0" to-layer="20" to-port="2" />
		<edge from-layer="19" from-port="0" to-layer="20" to-port="3" />
		<edge from-layer="20" from-port="4" to-layer="25" to-port="2" />
		<edge from-layer="21" from-port="0" to-layer="24" to-port="1" />
		<edge from-layer="22" from-port="0" to-layer="24" to-port="2" />
		<edge from-layer="23" from-port="0" to-layer="24" to-port="3" />
		<edge from-layer="24" from-port="4" to-layer="25" to-port="3" />
		<edge from-layer="25" from-port="4" to-layer="27" to-port="0" />
		<edge from-layer="26" from-port="0" to-layer="27" to-port="1" />
		<edge from-layer="27" from-port="2" to-layer="29" to-port="0" />
		<edge from-layer="28" from-port="0" to-layer="29" to-port="1" />
		<edge from-layer="29" from-port="2" to-layer="30" to-port="0" />
		<edge from-layer="30" from-port="1" to-layer="32" to-port="0" />
		<edge from-layer="31" from-port="0" to-layer="32" to-port="1" />
		<edge from-layer="32" from-port="2" to-layer="34" to-port="0" />
		<edge from-layer="33" from-port="0" to-layer="34" to-port="1" />
		<edge from-layer="34" from-port="2" to-layer="35" to-port="0" />
		<edge from-layer="35" from-port="1" to-layer="37" to-port="0" />
		<edge from-layer="35" from-port="1" to-layer="53" to-port="0" />
		<edge from-layer="36" from-port="0" to-layer="37" to-port="1" />
		<edge from-layer="37" from-port="2" to-layer="39" to-port="0" />
		<edge from-layer="38" from-port="0" to-layer="39" to-port="1" />
		<edge from-layer="39" from-port="2" to-layer="40" to-port="0" />
		<edge from-layer="40" from-port="1" to-layer="42" to-port="0" />
		<edge from-layer="40" from-port="1" to-layer="51" to-port="0" />
		<edge from-layer="41" from-port="0" to-layer="42" to-port="1" />
		<edge from-layer="42" from-port="2" to-layer="44" to-port="0" />
		<edge from-layer="43" from-port="0" to-layer="44" to-port="1" />
		<edge from-layer="44" from-port="2" to-layer="45" to-port="0" />
		<edge from-layer="45" from-port="1" to-layer="47" to-port="0" />
		<edge from-layer="46" from-port="0" to-layer="47" to-port="1" />
		<edge from-layer="47" from-port="2" to-layer="49" to-port="0" />
		<edge from-layer="48" from-port="0" to-layer="49" to-port="1" />
		<edge from-layer="49" from-port="2" to-layer="50" to-port="0" />
		<edge from-layer="50" from-port="1" to-layer="51" to-port="1" />
		<edge from-layer="51" from-port="2" to-layer="57" to-port="0" />
		<edge from-layer="52" from-port="0" to-layer="53" to-port="1" />
		<edge from-layer="53" from-port="2" to-layer="55" to-port="0" />
		<edge from-layer="54" from-port="0" to-layer="55" to-port="1" />
		<edge from-layer="55" from-port="2" to-layer="56" to-port="0" />
		<edge from-layer="56" from-port="1" to-layer="57" to-port="1" />
		<edge from-layer="57" from-port="2" to-layer="59" to-port="0" />
		<edge from-layer="58" from-port="0" to-layer="59" to-port="1" />
		<edge from-layer="59" from-port="2" to-layer="61" to-port="0" />
		<edge from-layer="60" from-port="0" to-layer="61" to-port="1" />
		<edge from-layer="61" from-port="2" to-layer="62" to-port="0" />
		<edge from-layer="62" from-port="1" to-layer="64" to-port="0" />
		<edge from-layer="63" from-port="0" to-layer="64" to-port="1" />
		<edge from-layer="64" from-port="2" to-layer="66" to-port="0" />
		<edge from-layer="65" from-port="0" to-layer="66" to-port="1" />
		<edge from-layer="66" from-port="2" to-layer="67" to-port="0" />
		<edge from-layer="67" from-port="1" to-layer="69" to-port="0" />
		<edge from-layer="67" from-port="1" to-layer="96" to-port="0" />
		<edge from-layer="68" from-port="0" to-layer="69" to-port="1" />
		<edge from-layer="69" from-port="2" to-layer="71" to-port="0" />
		<edge from-layer="70" from-port="0" to-layer="71" to-port="1" />
		<edge from-layer="71" from-port="2" to-layer="72" to-port="0" />
		<edge from-layer="72" from-port="1" to-layer="74" to-port="0" />
		<edge from-layer="72" from-port="1" to-layer="83" to-port="0" />
		<edge from-layer="73" from-port="0" to-layer="74" to-port="1" />
		<edge from-layer="74" from-port="2" to-layer="76" to-port="0" />
		<edge from-layer="75" from-port="0" to-layer="76" to-port="1" />
		<edge from-layer="76" from-port="2" to-layer="77" to-port="0" />
		<edge from-layer="77" from-port="1" to-layer="79" to-port="0" />
		<edge from-layer="78" from-port="0" to-layer="79" to-port="1" />
		<edge from-layer="79" from-port="2" to-layer="81" to-port="0" />
		<edge from-layer="80" from-port="0" to-layer="81" to-port="1" />
		<edge from-layer="81" from-port="2" to-layer="82" to-port="0" />
		<edge from-layer="82" from-port="1" to-layer="83" to-port="1" />
		<edge from-layer="83" from-port="2" to-layer="85" to-port="0" />
		<edge from-layer="83" from-port="2" to-layer="94" to-port="0" />
		<edge from-layer="84" from-port="0" to-layer="85" to-port="1" />
		<edge from-layer="85" from-port="2" to-layer="87" to-port="0" />
		<edge from-layer="86" from-port="0" to-layer="87" to-port="1" />
		<edge from-layer="87" from-port="2" to-layer="88" to-port="0" />
		<edge from-layer="88" from-port="1" to-layer="90" to-port="0" />
		<edge from-layer="89" from-port="0" to-layer="90" to-port="1" />
		<edge from-layer="90" from-port="2" to-layer="92" to-port="0" />
		<edge from-layer="91" from-port="0" to-layer="92" to-port="1" />
		<edge from-layer="92" from-port="2" to-layer="93" to-port="0" />
		<edge from-layer="93" from-port="1" to-layer="94" to-port="1" />
		<edge from-layer="94" from-port="2" to-layer="100" to-port="0" />
		<edge from-layer="95" from-port="0" to-layer="96" to-port="1" />
		<edge from-layer="96" from-port="2" to-layer="98" to-port="0" />
		<edge from-layer="97" from-port="0" to-layer="98" to-port="1" />
		<edge from-layer="98" from-port="2" to-layer="99" to-port="0" />
		<edge from-layer="99" from-port="1" to-layer="100" to-port="1" />
		<edge from-layer="100" from-port="2" to-layer="102" to-port="0" />
		<edge from-layer="101" from-port="0" to-layer="102" to-port="1" />
		<edge from-layer="102" from-port="2" to-layer="104" to-port="0" />
		<edge from-layer="103" from-port="0" to-layer="104" to-port="1" />
		<edge from-layer="104" from-port="2" to-layer="105" to-port="0" />
		<edge from-layer="105" from-port="1" to-layer="243" to-port="1" />
		<edge from-layer="105" from-port="1" to-layer="107" to-port="0" />
		<edge from-layer="106" from-port="0" to-layer="107" to-port="1" />
		<edge from-layer="107" from-port="2" to-layer="109" to-port="0" />
		<edge from-layer="108" from-port="0" to-layer="109" to-port="1" />
		<edge from-layer="109" from-port="2" to-layer="110" to-port="0" />
		<edge from-layer="110" from-port="1" to-layer="112" to-port="0" />
		<edge from-layer="110" from-port="1" to-layer="139" to-port="0" />
		<edge from-layer="111" from-port="0" to-layer="112" to-port="1" />
		<edge from-layer="112" from-port="2" to-layer="114" to-port="0" />
		<edge from-layer="113" from-port="0" to-layer="114" to-port="1" />
		<edge from-layer="114" from-port="2" to-layer="115" to-port="0" />
		<edge from-layer="115" from-port="1" to-layer="117" to-port="0" />
		<edge from-layer="115" from-port="1" to-layer="126" to-port="0" />
		<edge from-layer="116" from-port="0" to-layer="117" to-port="1" />
		<edge from-layer="117" from-port="2" to-layer="119" to-port="0" />
		<edge from-layer="118" from-port="0" to-layer="119" to-port="1" />
		<edge from-layer="119" from-port="2" to-layer="120" to-port="0" />
		<edge from-layer="120" from-port="1" to-layer="122" to-port="0" />
		<edge from-layer="121" from-port="0" to-layer="122" to-port="1" />
		<edge from-layer="122" from-port="2" to-layer="124" to-port="0" />
		<edge from-layer="123" from-port="0" to-layer="124" to-port="1" />
		<edge from-layer="124" from-port="2" to-layer="125" to-port="0" />
		<edge from-layer="125" from-port="1" to-layer="126" to-port="1" />
		<edge from-layer="126" from-port="2" to-layer="128" to-port="0" />
		<edge from-layer="126" from-port="2" to-layer="137" to-port="0" />
		<edge from-layer="127" from-port="0" to-layer="128" to-port="1" />
		<edge from-layer="128" from-port="2" to-layer="130" to-port="0" />
		<edge from-layer="129" from-port="0" to-layer="130" to-port="1" />
		<edge from-layer="130" from-port="2" to-layer="131" to-port="0" />
		<edge from-layer="131" from-port="1" to-layer="133" to-port="0" />
		<edge from-layer="132" from-port="0" to-layer="133" to-port="1" />
		<edge from-layer="133" from-port="2" to-layer="135" to-port="0" />
		<edge from-layer="134" from-port="0" to-layer="135" to-port="1" />
		<edge from-layer="135" from-port="2" to-layer="136" to-port="0" />
		<edge from-layer="136" from-port="1" to-layer="137" to-port="1" />
		<edge from-layer="137" from-port="2" to-layer="143" to-port="0" />
		<edge from-layer="138" from-port="0" to-layer="139" to-port="1" />
		<edge from-layer="139" from-port="2" to-layer="141" to-port="0" />
		<edge from-layer="140" from-port="0" to-layer="141" to-port="1" />
		<edge from-layer="141" from-port="2" to-layer="142" to-port="0" />
		<edge from-layer="142" from-port="1" to-layer="143" to-port="1" />
		<edge from-layer="143" from-port="2" to-layer="145" to-port="0" />
		<edge from-layer="144" from-port="0" to-layer="145" to-port="1" />
		<edge from-layer="145" from-port="2" to-layer="147" to-port="0" />
		<edge from-layer="146" from-port="0" to-layer="147" to-port="1" />
		<edge from-layer="147" from-port="2" to-layer="148" to-port="0" />
		<edge from-layer="148" from-port="1" to-layer="205" to-port="1" />
		<edge from-layer="148" from-port="1" to-layer="150" to-port="0" />
		<edge from-layer="149" from-port="0" to-layer="150" to-port="1" />
		<edge from-layer="150" from-port="2" to-layer="152" to-port="0" />
		<edge from-layer="151" from-port="0" to-layer="152" to-port="1" />
		<edge from-layer="152" from-port="2" to-layer="153" to-port="0" />
		<edge from-layer="153" from-port="1" to-layer="155" to-port="0" />
		<edge from-layer="154" from-port="0" to-layer="155" to-port="1" />
		<edge from-layer="155" from-port="2" to-layer="157" to-port="0" />
		<edge from-layer="156" from-port="0" to-layer="157" to-port="1" />
		<edge from-layer="157" from-port="2" to-layer="158" to-port="0" />
		<edge from-layer="158" from-port="1" to-layer="159" to-port="0" />
		<edge from-layer="158" from-port="1" to-layer="160" to-port="0" />
		<edge from-layer="158" from-port="1" to-layer="161" to-port="0" />
		<edge from-layer="158" from-port="1" to-layer="162" to-port="0" />
		<edge from-layer="159" from-port="1" to-layer="162" to-port="1" />
		<edge from-layer="160" from-port="1" to-layer="162" to-port="2" />
		<edge from-layer="161" from-port="1" to-layer="162" to-port="3" />
		<edge from-layer="162" from-port="4" to-layer="164" to-port="0" />
		<edge from-layer="163" from-port="0" to-layer="164" to-port="1" />
		<edge from-layer="164" from-port="2" to-layer="166" to-port="0" />
		<edge from-layer="165" from-port="0" to-layer="166" to-port="1" />
		<edge from-layer="166" from-port="2" to-layer="167" to-port="0" />
		<edge from-layer="167" from-port="1" to-layer="169" to-port="0" />
		<edge from-layer="167" from-port="1" to-layer="184" to-port="0" />
		<edge from-layer="168" from-port="0" to-layer="169" to-port="1" />
		<edge from-layer="169" from-port="2" to-layer="171" to-port="0" />
		<edge from-layer="170" from-port="0" to-layer="171" to-port="1" />
		<edge from-layer="171" from-port="2" to-layer="172" to-port="0" />
		<edge from-layer="172" from-port="1" to-layer="174" to-port="0" />
		<edge from-layer="173" from-port="0" to-layer="174" to-port="1" />
		<edge from-layer="174" from-port="2" to-layer="176" to-port="0" />
		<edge from-layer="175" from-port="0" to-layer="176" to-port="1" />
		<edge from-layer="176" from-port="2" to-layer="177" to-port="0" />
		<edge from-layer="177" from-port="1" to-layer="179" to-port="0" />
		<edge from-layer="178" from-port="0" to-layer="179" to-port="1" />
		<edge from-layer="179" from-port="2" to-layer="181" to-port="0" />
		<edge from-layer="180" from-port="0" to-layer="181" to-port="1" />
		<edge from-layer="181" from-port="2" to-layer="182" to-port="0" />
		<edge from-layer="182" from-port="1" to-layer="188" to-port="0" />
		<edge from-layer="183" from-port="0" to-layer="184" to-port="1" />
		<edge from-layer="184" from-port="2" to-layer="186" to-port="0" />
		<edge from-layer="185" from-port="0" to-layer="186" to-port="1" />
		<edge from-layer="186" from-port="2" to-layer="187" to-port="0" />
		<edge from-layer="187" from-port="1" to-layer="188" to-port="1" />
		<edge from-layer="188" from-port="2" to-layer="190" to-port="0" />
		<edge from-layer="189" from-port="0" to-layer="190" to-port="1" />
		<edge from-layer="190" from-port="2" to-layer="192" to-port="0" />
		<edge from-layer="191" from-port="0" to-layer="192" to-port="1" />
		<edge from-layer="192" from-port="2" to-layer="193" to-port="0" />
		<edge from-layer="193" from-port="1" to-layer="195" to-port="0" />
		<edge from-layer="194" from-port="0" to-layer="195" to-port="1" />
		<edge from-layer="195" from-port="2" to-layer="197" to-port="0" />
		<edge from-layer="196" from-port="0" to-layer="197" to-port="1" />
		<edge from-layer="197" from-port="2" to-layer="198" to-port="0" />
		<edge from-layer="198" from-port="1" to-layer="356" to-port="1" />
		<edge from-layer="198" from-port="1" to-layer="204" to-port="0" />
		<edge from-layer="198" from-port="1" to-layer="199" to-port="0" />
		<edge from-layer="199" from-port="1" to-layer="200" to-port="0" />
		<edge from-layer="200" from-port="1" to-layer="202" to-port="0" />
		<edge from-layer="201" from-port="0" to-layer="202" to-port="1" />
		<edge from-layer="201" from-port="0" to-layer="204" to-port="2" />
		<edge from-layer="202" from-port="2" to-layer="203" to-port="0" />
		<edge from-layer="203" from-port="1" to-layer="204" to-port="1" />
		<edge from-layer="204" from-port="3" to-layer="205" to-port="0" />
		<edge from-layer="205" from-port="2" to-layer="207" to-port="0" />
		<edge from-layer="205" from-port="2" to-layer="222" to-port="0" />
		<edge from-layer="206" from-port="0" to-layer="207" to-port="1" />
		<edge from-layer="207" from-port="2" to-layer="209" to-port="0" />
		<edge from-layer="208" from-port="0" to-layer="209" to-port="1" />
		<edge from-layer="209" from-port="2" to-layer="210" to-port="0" />
		<edge from-layer="210" from-port="1" to-layer="212" to-port="0" />
		<edge from-layer="211" from-port="0" to-layer="212" to-port="1" />
		<edge from-layer="212" from-port="2" to-layer="214" to-port="0" />
		<edge from-layer="213" from-port="0" to-layer="214" to-port="1" />
		<edge from-layer="214" from-port="2" to-layer="215" to-port="0" />
		<edge from-layer="215" from-port="1" to-layer="217" to-port="0" />
		<edge from-layer="216" from-port="0" to-layer="217" to-port="1" />
		<edge from-layer="217" from-port="2" to-layer="219" to-port="0" />
		<edge from-layer="218" from-port="0" to-layer="219" to-port="1" />
		<edge from-layer="219" from-port="2" to-layer="220" to-port="0" />
		<edge from-layer="220" from-port="1" to-layer="226" to-port="0" />
		<edge from-layer="221" from-port="0" to-layer="222" to-port="1" />
		<edge from-layer="222" from-port="2" to-layer="224" to-port="0" />
		<edge from-layer="223" from-port="0" to-layer="224" to-port="1" />
		<edge from-layer="224" from-port="2" to-layer="225" to-port="0" />
		<edge from-layer="225" from-port="1" to-layer="226" to-port="1" />
		<edge from-layer="226" from-port="2" to-layer="228" to-port="0" />
		<edge from-layer="227" from-port="0" to-layer="228" to-port="1" />
		<edge from-layer="228" from-port="2" to-layer="230" to-port="0" />
		<edge from-layer="229" from-port="0" to-layer="230" to-port="1" />
		<edge from-layer="230" from-port="2" to-layer="231" to-port="0" />
		<edge from-layer="231" from-port="1" to-layer="233" to-port="0" />
		<edge from-layer="232" from-port="0" to-layer="233" to-port="1" />
		<edge from-layer="233" from-port="2" to-layer="235" to-port="0" />
		<edge from-layer="234" from-port="0" to-layer="235" to-port="1" />
		<edge from-layer="235" from-port="2" to-layer="236" to-port="0" />
		<edge from-layer="236" from-port="1" to-layer="237" to-port="0" />
		<edge from-layer="236" from-port="1" to-layer="300" to-port="1" />
		<edge from-layer="236" from-port="1" to-layer="242" to-port="0" />
		<edge from-layer="237" from-port="1" to-layer="238" to-port="0" />
		<edge from-layer="238" from-port="1" to-layer="240" to-port="0" />
		<edge from-layer="239" from-port="0" to-layer="240" to-port="1" />
		<edge from-layer="239" from-port="0" to-layer="242" to-port="2" />
		<edge from-layer="240" from-port="2" to-layer="241" to-port="0" />
		<edge from-layer="241" from-port="1" to-layer="242" to-port="1" />
		<edge from-layer="242" from-port="3" to-layer="243" to-port="0" />
		<edge from-layer="243" from-port="2" to-layer="245" to-port="0" />
		<edge from-layer="243" from-port="2" to-layer="260" to-port="0" />
		<edge from-layer="244" from-port="0" to-layer="245" to-port="1" />
		<edge from-layer="245" from-port="2" to-layer="247" to-port="0" />
		<edge from-layer="246" from-port="0" to-layer="247" to-port="1" />
		<edge from-layer="247" from-port="2" to-layer="248" to-port="0" />
		<edge from-layer="248" from-port="1" to-layer="250" to-port="0" />
		<edge from-layer="249" from-port="0" to-layer="250" to-port="1" />
		<edge from-layer="250" from-port="2" to-layer="252" to-port="0" />
		<edge from-layer="251" from-port="0" to-layer="252" to-port="1" />
		<edge from-layer="252" from-port="2" to-layer="253" to-port="0" />
		<edge from-layer="253" from-port="1" to-layer="255" to-port="0" />
		<edge from-layer="254" from-port="0" to-layer="255" to-port="1" />
		<edge from-layer="255" from-port="2" to-layer="257" to-port="0" />
		<edge from-layer="256" from-port="0" to-layer="257" to-port="1" />
		<edge from-layer="257" from-port="2" to-layer="258" to-port="0" />
		<edge from-layer="258" from-port="1" to-layer="264" to-port="0" />
		<edge from-layer="259" from-port="0" to-layer="260" to-port="1" />
		<edge from-layer="260" from-port="2" to-layer="262" to-port="0" />
		<edge from-layer="261" from-port="0" to-layer="262" to-port="1" />
		<edge from-layer="262" from-port="2" to-layer="263" to-port="0" />
		<edge from-layer="263" from-port="1" to-layer="264" to-port="1" />
		<edge from-layer="264" from-port="2" to-layer="266" to-port="0" />
		<edge from-layer="265" from-port="0" to-layer="266" to-port="1" />
		<edge from-layer="266" from-port="2" to-layer="268" to-port="0" />
		<edge from-layer="267" from-port="0" to-layer="268" to-port="1" />
		<edge from-layer="268" from-port="2" to-layer="269" to-port="0" />
		<edge from-layer="269" from-port="1" to-layer="296" to-port="0" />
		<edge from-layer="269" from-port="1" to-layer="271" to-port="0" />
		<edge from-layer="270" from-port="0" to-layer="271" to-port="1" />
		<edge from-layer="271" from-port="2" to-layer="273" to-port="0" />
		<edge from-layer="272" from-port="0" to-layer="273" to-port="1" />
		<edge from-layer="273" from-port="2" to-layer="275" to-port="0" />
		<edge from-layer="274" from-port="0" to-layer="275" to-port="1" />
		<edge from-layer="275" from-port="2" to-layer="277" to-port="0" />
		<edge from-layer="276" from-port="0" to-layer="277" to-port="1" />
		<edge from-layer="277" from-port="2" to-layer="278" to-port="0" />
		<edge from-layer="278" from-port="1" to-layer="281" to-port="0" />
		<edge from-layer="279" from-port="0" to-layer="281" to-port="1" />
		<edge from-layer="280" from-port="0" to-layer="393" to-port="2" />
		<edge from-layer="280" from-port="0" to-layer="281" to-port="2" />
		<edge from-layer="280" from-port="0" to-layer="337" to-port="2" />
		<edge from-layer="281" from-port="3" to-layer="283" to-port="0" />
		<edge from-layer="281" from-port="5" to-layer="292" to-port="2" />
		<edge from-layer="281" from-port="4" to-layer="287" to-port="0" />
		<edge from-layer="282" from-port="0" to-layer="283" to-port="1" />
		<edge from-layer="283" from-port="2" to-layer="285" to-port="0" />
		<edge from-layer="284" from-port="0" to-layer="285" to-port="1" />
		<edge from-layer="285" from-port="2" to-layer="292" to-port="0" />
		<edge from-layer="286" from-port="0" to-layer="287" to-port="1" />
		<edge from-layer="287" from-port="2" to-layer="289" to-port="0" />
		<edge from-layer="288" from-port="0" to-layer="289" to-port="1" />
		<edge from-layer="289" from-port="2" to-layer="291" to-port="0" />
		<edge from-layer="290" from-port="0" to-layer="291" to-port="1" />
		<edge from-layer="291" from-port="2" to-layer="292" to-port="1" />
		<edge from-layer="292" from-port="3" to-layer="294" to-port="0" />
		<edge from-layer="293" from-port="0" to-layer="294" to-port="1" />
		<edge from-layer="294" from-port="2" to-layer="407" to-port="0" />
		<edge from-layer="295" from-port="0" to-layer="296" to-port="1" />
		<edge from-layer="296" from-port="2" to-layer="298" to-port="0" />
		<edge from-layer="297" from-port="0" to-layer="298" to-port="1" />
		<edge from-layer="298" from-port="2" to-layer="299" to-port="0" />
		<edge from-layer="299" from-port="1" to-layer="300" to-port="0" />
		<edge from-layer="300" from-port="2" to-layer="317" to-port="0" />
		<edge from-layer="300" from-port="2" to-layer="302" to-port="0" />
		<edge from-layer="301" from-port="0" to-layer="302" to-port="1" />
		<edge from-layer="302" from-port="2" to-layer="304" to-port="0" />
		<edge from-layer="303" from-port="0" to-layer="304" to-port="1" />
		<edge from-layer="304" from-port="2" to-layer="305" to-port="0" />
		<edge from-layer="305" from-port="1" to-layer="307" to-port="0" />
		<edge from-layer="306" from-port="0" to-layer="307" to-port="1" />
		<edge from-layer="307" from-port="2" to-layer="309" to-port="0" />
		<edge from-layer="308" from-port="0" to-layer="309" to-port="1" />
		<edge from-layer="309" from-port="2" to-layer="310" to-port="0" />
		<edge from-layer="310" from-port="1" to-layer="312" to-port="0" />
		<edge from-layer="311" from-port="0" to-layer="312" to-port="1" />
		<edge from-layer="312" from-port="2" to-layer="314" to-port="0" />
		<edge from-layer="313" from-port="0" to-layer="314" to-port="1" />
		<edge from-layer="314" from-port="2" to-layer="315" to-port="0" />
		<edge from-layer="315" from-port="1" to-layer="321" to-port="0" />
		<edge from-layer="316" from-port="0" to-layer="317" to-port="1" />
		<edge from-layer="317" from-port="2" to-layer="319" to-port="0" />
		<edge from-layer="318" from-port="0" to-layer="319" to-port="1" />
		<edge from-layer="319" from-port="2" to-layer="320" to-port="0" />
		<edge from-layer="320" from-port="1" to-layer="321" to-port="1" />
		<edge from-layer="321" from-port="2" to-layer="323" to-port="0" />
		<edge from-layer="322" from-port="0" to-layer="323" to-port="1" />
		<edge from-layer="323" from-port="2" to-layer="325" to-port="0" />
		<edge from-layer="324" from-port="0" to-layer="325" to-port="1" />
		<edge from-layer="325" from-port="2" to-layer="326" to-port="0" />
		<edge from-layer="326" from-port="1" to-layer="328" to-port="0" />
		<edge from-layer="326" from-port="1" to-layer="352" to-port="0" />
		<edge from-layer="327" from-port="0" to-layer="328" to-port="1" />
		<edge from-layer="328" from-port="2" to-layer="330" to-port="0" />
		<edge from-layer="329" from-port="0" to-layer="330" to-port="1" />
		<edge from-layer="330" from-port="2" to-layer="332" to-port="0" />
		<edge from-layer="331" from-port="0" to-layer="332" to-port="1" />
		<edge from-layer="332" from-port="2" to-layer="334" to-port="0" />
		<edge from-layer="333" from-port="0" to-layer="334" to-port="1" />
		<edge from-layer="334" from-port="2" to-layer="335" to-port="0" />
		<edge from-layer="335" from-port="1" to-layer="337" to-port="0" />
		<edge from-layer="336" from-port="0" to-layer="337" to-port="1" />
		<edge from-layer="337" from-port="5" to-layer="348" to-port="2" />
		<edge from-layer="337" from-port="3" to-layer="339" to-port="0" />
		<edge from-layer="337" from-port="4" to-layer="343" to-port="0" />
		<edge from-layer="338" from-port="0" to-layer="339" to-port="1" />
		<edge from-layer="339" from-port="2" to-layer="341" to-port="0" />
		<edge from-layer="340" from-port="0" to-layer="341" to-port="1" />
		<edge from-layer="341" from-port="2" to-layer="348" to-port="0" />
		<edge from-layer="342" from-port="0" to-layer="343" to-port="1" />
		<edge from-layer="343" from-port="2" to-layer="345" to-port="0" />
		<edge from-layer="344" from-port="0" to-layer="345" to-port="1" />
		<edge from-layer="345" from-port="2" to-layer="347" to-port="0" />
		<edge from-layer="346" from-port="0" to-layer="347" to-port="1" />
		<edge from-layer="347" from-port="2" to-layer="348" to-port="1" />
		<edge from-layer="348" from-port="3" to-layer="350" to-port="0" />
		<edge from-layer="349" from-port="0" to-layer="350" to-port="1" />
		<edge from-layer="350" from-port="2" to-layer="407" to-port="1" />
		<edge from-layer="351" from-port="0" to-layer="352" to-port="1" />
		<edge from-layer="352" from-port="2" to-layer="354" to-port="0" />
		<edge from-layer="353" from-port="0" to-layer="354" to-port="1" />
		<edge from-layer="354" from-port="2" to-layer="355" to-port="0" />
		<edge from-layer="355" from-port="1" to-layer="356" to-port="0" />
		<edge from-layer="356" from-port="2" to-layer="373" to-port="0" />
		<edge from-layer="356" from-port="2" to-layer="358" to-port="0" />
		<edge from-layer="357" from-port="0" to-layer="358" to-port="1" />
		<edge from-layer="358" from-port="2" to-layer="360" to-port="0" />
		<edge from-layer="359" from-port="0" to-layer="360" to-port="1" />
		<edge from-layer="360" from-port="2" to-layer="361" to-port="0" />
		<edge from-layer="361" from-port="1" to-layer="363" to-port="0" />
		<edge from-layer="362" from-port="0" to-layer="363" to-port="1" />
		<edge from-layer="363" from-port="2" to-layer="365" to-port="0" />
		<edge from-layer="364" from-port="0" to-layer="365" to-port="1" />
		<edge from-layer="365" from-port="2" to-layer="366" to-port="0" />
		<edge from-layer="366" from-port="1" to-layer="368" to-port="0" />
		<edge from-layer="367" from-port="0" to-layer="368" to-port="1" />
		<edge from-layer="368" from-port="2" to-layer="370" to-port="0" />
		<edge from-layer="369" from-port="0" to-layer="370" to-port="1" />
		<edge from-layer="370" from-port="2" to-layer="371" to-port="0" />
		<edge from-layer="371" from-port="1" to-layer="377" to-port="0" />
		<edge from-layer="372" from-port="0" to-layer="373" to-port="1" />
		<edge from-layer="373" from-port="2" to-layer="375" to-port="0" />
		<edge from-layer="374" from-port="0" to-layer="375" to-port="1" />
		<edge from-layer="375" from-port="2" to-layer="376" to-port="0" />
		<edge from-layer="376" from-port="1" to-layer="377" to-port="1" />
		<edge from-layer="377" from-port="2" to-layer="379" to-port="0" />
		<edge from-layer="378" from-port="0" to-layer="379" to-port="1" />
		<edge from-layer="379" from-port="2" to-layer="381" to-port="0" />
		<edge from-layer="380" from-port="0" to-layer="381" to-port="1" />
		<edge from-layer="381" from-port="2" to-layer="382" to-port="0" />
		<edge from-layer="382" from-port="1" to-layer="384" to-port="0" />
		<edge from-layer="383" from-port="0" to-layer="384" to-port="1" />
		<edge from-layer="384" from-port="2" to-layer="386" to-port="0" />
		<edge from-layer="385" from-port="0" to-layer="386" to-port="1" />
		<edge from-layer="386" from-port="2" to-layer="388" to-port="0" />
		<edge from-layer="387" from-port="0" to-layer="388" to-port="1" />
		<edge from-layer="388" from-port="2" to-layer="390" to-port="0" />
		<edge from-layer="389" from-port="0" to-layer="390" to-port="1" />
		<edge from-layer="390" from-port="2" to-layer="391" to-port="0" />
		<edge from-layer="391" from-port="1" to-layer="393" to-port="0" />
		<edge from-layer="392" from-port="0" to-layer="393" to-port="1" />
		<edge from-layer="393" from-port="3" to-layer="395" to-port="0" />
		<edge from-layer="393" from-port="5" to-layer="404" to-port="2" />
		<edge from-layer="393" from-port="4" to-layer="399" to-port="0" />
		<edge from-layer="394" from-port="0" to-layer="395" to-port="1" />
		<edge from-layer="395" from-port="2" to-layer="397" to-port="0" />
		<edge from-layer="396" from-port="0" to-layer="397" to-port="1" />
		<edge from-layer="397" from-port="2" to-layer="404" to-port="0" />
		<edge from-layer="398" from-port="0" to-layer="399" to-port="1" />
		<edge from-layer="399" from-port="2" to-layer="401" to-port="0" />
		<edge from-layer="400" from-port="0" to-layer="401" to-port="1" />
		<edge from-layer="401" from-port="2" to-layer="403" to-port="0" />
		<edge from-layer="402" from-port="0" to-layer="403" to-port="1" />
		<edge from-layer="403" from-port="2" to-layer="404" to-port="1" />
		<edge from-layer="404" from-port="3" to-layer="406" to-port="0" />
		<edge from-layer="405" from-port="0" to-layer="406" to-port="1" />
		<edge from-layer="406" from-port="2" to-layer="407" to-port="2" />
		<edge from-layer="407" from-port="3" to-layer="408" to-port="0" />
	</edges>
	<rt_info>
		<MO_version value="2022.3.0-9052-9752fafe8eb-releases/2022/3" />
		<Runtime_version value="2022.3.0-9052-9752fafe8eb-releases/2022/3" />
		<conversion_parameters>
			<data_type value="FP16" />
			<framework value="onnx" />
			<input_model value="DIR/crowd_human.onnx" />
			<model_name value="crowd_human" />
			<output_dir value="/content/crowd_human_openvino_model/" />
		</conversion_parameters>
		<framework>
			<names value="{0: 'person'}" />
			<stride value="32" />
		</framework>
		<legacy_frontend value="False" />
	</rt_info>
</net>
